CNN.pt (torch, 252231 bytes, 10 tensors)

weight f4 [6, 1, 5, 5]
-0.18121749 -0.08204878 0.10700474 0.102068536 0.15654849 0.013005205 0.2068929 0.08296612
0.19689828 0.21369064 0.023963073 0.07844875 0.014576293 -0.014320257 -0.1217812 -0.019209044
0.06616146 0.12107422 0.099299714 -0.24852203 -0.036352064 -0.013029346 -0.07102342 -0.16690533
-0.10708251 -0.04112586 -0.009222902 0.17725961 -0.06374522 0.0295141 -0.08560084 -0.18698391
-0.0960239 0.18274505 -0.09870704 0.13147856 -0.14164765 -0.15822648 0.16438 -0.05944631
0.15147622 -0.20517157 -0.0851588 0.07049989 0.009185057 -0.042920414 -0.0028965205 0.07042889
0.09970381 0.13820317 0.13680036 -0.15333878 -0.25238532 -0.09346966 0.16881235 0.1503644
0.14924411 0.15277645 0.11324193 -0.13591024 0.15337661 -0.029735193 -0.00933689 -0.026142864
0.13342693 0.012639019 0.14385886 -0.07322397 0.11813306 -0.18315054 -0.07224978 0.011751608
0.064884804 -0.19837561 -0.059077628 0.08695016 0.1356802 0.08771553 -0.089189924 -0.13580944
0.1955752 0.19253504 0.025509069 0.14376809 0.15629162 0.09130232 0.168658 0.19235305
0.1233144 0.18485968 -0.0732921 0.09308543 -0.02257545 0.091509596 0.164583 0.03322083
-0.17979914 -0.16825026 0.05215455 0.1945704 0.014846465 -0.108558066 0.15149723 -0.06270193
0.12159898 -0.14034857 0.034045503 -0.2225238 0.15925837 0.018772632 -0.15811406 -0.18747433
-0.15865237 0.09475911 0.18888684 0.001830722 0.061258826 -0.0361538 0.078497596 0.17785434
-0.16383234 0.1068222 -0.10183737 0.20198885 0.15757251 0.01699409 0.14867789 0.066086136
-0.16848674 0.049478907 0.05924959 0.124957025 0.086787954 -0.016294815 0.15159698 -0.19641544
0.10957258 0.21155779 0.21335074 0.045945227 -0.25705495 -0.10361035 -0.10316777 -0.0072372686
-0.014950007 -0.031990096 -0.19212802 -0.15251079 -0.13493006 0.11681864
00000000: 1491 39be 3109 a8bd 4d25 db3d 4f09 d13d
00000010: 3f4e 203e c913 553c bbdb 533e 24ea a93d
00000020: b49f 493e b8d1 5a3e 354e c43c bda9 a03d
00000030: 67d1 6e3c 839f 6abc 6c68 f9bd 495c 9dbc
00000040: a97f 873d c3f5 f73d a65d cb3d 8f7c 7ebe
00000050: e7e5 14bd 0a79 55bc ba74 91bd 3be9 2abe
00000060: 134e dbbd 9773 28bd a81b 17bc 8b83 353e
00000070: db8c 82bd 8ec7 f13c 7e4f afbd b678 3fbe
00000080: 2ea8 c4bd 8521 3b3e eb26 cabd 51a2 063e
00000090: 150c 11be 1f06 22be 3b53 283e f97d 73bd
000000a0: 951c 1b3e 7f18 52be bd67 aebd 3f62 903d
000000b0: ec7c 163c 51cd 2fbd 8dd3 3dbb 063d 903d
000000c0: 8331 cc3d 2285 0d3e 6515 0c3e d704 1dbe
000000d0: a638 81be 056d bfbd 25dd 2c3e 20f9 193e
000000e0: 73d3 183e 6e71 1c3e 63eb e73d 0e2c 0bbe
000000f0: c20e 1d3e 3897 f3bc c1f9 18bc 8f29 d6bc
00000100: 12a1 083e e313 4f3c bd4f 133e 73f6 95bd
00000110: bfef f13d d18b 3bbe b1f7 93bd d189 403c
00000120: 53e2 843d fa22 4bbe 62fb 71bd ed12 b23d
00000130: c0ef 0a3e 33a4 b33d 35a9 b6bd a111 0bbe
00000140: dd44 483e e827 453e 65f8 d03c f137 133e
00000150: e90a 203e b6fc ba3d afb4 2c3e 33f8 443e
00000160: 438c fc3d db4b 3d3e 2b1a 96bd 93a3 be3d
00000170: 26f0 b8bc 6269 bb3d 7288 283e 9112 083d
00000180: 441d 38be cc49 2cbe 02a0 553d 773d 473e
00000190: 963e 733c b153 debd 1722 1b3e df69 80bd
000001a0: e308 f93d 89b7 0fbe 4c73 0b3d 47dd 63be
000001b0: a014 233e 10c9 993c a7e8 21be 45f9 3fbe
000001c0: c475 22be 1011 c23d 8d6b 413e d6f4 ef3a
000001d0: 89ea 7a3d 0216 14bd 59c3 a03d 731f 363e
000001e0: aac3 27be 99c5 da3d 1c90 d0bd 2ad6 4e3e
000001f0: b05a 213e 3137 8b3c 043f 183e 2b58 873d
00000200: ca87 2cbe 65aa 4a3d b3af 723d 78e9 ff3d
00000210: e2bd b13d b47c 85bc 3d3c 1b3e 2121 49be
00000220: 9767 e03d 9ba2 583e 9e78 5a3e 1031 3c3d
00000230: b59c 83be aa31 d4bd a049 d3bd 9c26 edbb
00000240: e0f0 74bc 0c08 03bd 35bd 44be ca2b 1cbe
00000250: 1b2b 0abe 9c3e ef3d

bias f4 [6]
0.07865578 -0.008920663 -0.07941642 0.084437855 0.10635743 0.12847564
00000000: 4816 a13d f927 12bc 13a5 a2bd c1ed ac3d
00000010: edd1 d93d 1e8f 033e

weight f4 [16, 6, 5, 5]
-0.033029567 0.010397958 0.016408304 0.008983994 0.0040490497 -0.04596128 -0.058796987 0.028171785
-0.021178268 0.04959666 -0.097531065 0.001307414 -0.051819313 0.009381252 -0.06086215 0.022998713
-0.055095512 -0.01272433 -0.06807195 -0.020001141 -0.08172658 0.04123775 0.050610334 -0.078618936
0.009861506 0.05914901 0.06026368 -0.10642216 0.03516262 -0.037477363 -0.063670464 0.054272626
-0.075871676 0.006931477 -0.0047239643 -0.029249113 0.08926571 -0.010303194 0.0012424806 -0.04629537
-0.062303234 -0.0052736304 -0.0042330557 0.020743474 0.028456802 -0.026462195 -0.02697308 0.04041883
-0.06589374 -0.0357652 -0.0442685 -0.10385887 -0.041566953 0.032225836 -0.0012090009 -0.01030157
0.032940052 -0.057088424 0.06285756 0.08670201 -0.029472074 0.05869076 0.0039202087 0.032454718
-0.031517528 -0.06444227 0.07211228 0.05487063 -0.061115142 -0.03785945 0.022745857 0.007776557
-0.06855635 0.016027592 0.06201504 -0.05405061 0.07839658 -0.023455998 0.019040389 -0.0068898387
0.0082861725 -0.016131122 -0.06212562 0.03534218 0.037946995 0.06779824 -0.009353468 -0.017094301
-0.0037757894 0.013193505 0.013399747 0.038656596 0.07451911 0.048348572 -0.10619012 -0.0013119859
0.08000667 0.044110507 0.006208475 0.031060467 0.05817733 -0.06596042 -0.018230177 0.042613544
0.025414867 -0.07202123 0.07263032 -0.058074873 -0.089283206 0.0150796445 -0.021379167 0.031709757
-0.011476651 0.00470037 -0.06339272 -0.062964015 0.05244377 0.07228607 -0.0829198 0.020237902
-0.05678048 0.053221975 -0.033011317 -0.1317898 -0.008287665 0.0030166195 0.009987016 -0.00025331802
-0.04443205 0.047383197 0.066195525 -0.054385547 -0.0783753 -0.06711352 0.0029108138 0.003929897
-0.03345641 0.055130728 -0.09164623 0.012776621 0.07117141 -0.01766428 0.04002751 0.0395449
-0.04707343 0.010539372 -0.020398846 -0.008821315 -0.015925959 0.01255313 0.0006247583 -0.08621476
-0.036636528 -0.0052789818 -0.017275002 -0.0030529755 -0.059507683 0.0798972 0.051487703 0.04205657
0.042459425 -0.050012756 -0.053069066 -0.039133415 -0.03510021 -0.035515685 -0.009311085 -0.061335184
0.06854168 0.069958806 0.022111094 -0.040827446 0.053906478 0.106994145 -0.072777614 0.012871399
0.10260735 0.02583557 -0.0879892 0.00752917 0.0770886 -0.06192432 0.07787112 0.04535699
-0.0593226 -0.06995526 -0.02397909 0.008806592 -0.06000275 -0.04239413 -0.0056160274 -0.08548701
0.09514528 -0.005822845 -0.076071486 0.035340086 -0.06905445 -0.024965493 0.03188689 -0.11899995
0.07957843 0.0068679373 -0.12103221 0.03614633 0.020797629 0.034122415 -0.007816679 -0.05263277
-0.07905726 0.018130938 0.07597185 -0.034135327 -0.0726057 -0.02518979 0.017267797 -0.013155475
-0.035223275 0.03845526 0.04438543 -0.008904359 0.06782089 -0.06694233 0.04633928 0.029194491
0.090896666 0.024546595 -0.03036139 -0.06377214 0.022199497 -0.032351844 -0.011765223 0.035129905
0.07570491 0.044952348 0.010755972 -0.032489426 0.006708718 0.06754213 -0.028017513 0.017784523
-0.080105886 0.004835117 0.0051108766 -0.08953392 0.051262137 -0.028446378 -0.035230894 0.055753443
-0.023010584 0.066361025 -0.07794212 0.030466331 1.4308871e-06 -0.040585894 -0.01629887 -0.03037041
00000000: 034a 07bd 325c 2a3c b56a 863c 9a31 133c
00000010: e4ad 843b e541 3cbd 1cd5 70bd 84c8 e63c
00000020: 0c7e adbc de25 4b3d 5ebe c7bd 895d ab3a
00000030: 7d40 54bd d3b3 193c 974a 79bd cc67 bc3c
00000040: d5ab 61bd b579 50bc 4e69 8bbd 6fd9 a3bc
00000050: 4460 a7bd eae8 283d c84c 4f3d f702 a1bd
00000060: 2792 213c 3b46 723d 0cd7 763d ddf3 d9bd
00000070: ae06 103d dd81 19bd a965 82bd f94c 5e3d
00000080: 9c62 9bbd 7221 e33b 7ccb 9abb d69b efbc
00000090: f1d0 b63d bace 28bc bbda a23a 37a0 3dbd
000000a0: ad31 7fbd 6bce acbb 72b5 8abb 38ee a93c
000000b0: 3d1e e93c 3fc7 d8bc a6f6 dcbc 378e 253d
000000c0: 4cf3 86bd 887e 12bd e352 35bd f6b3 d4bd
000000d0: 1c42 2abd 3dff 033d 5777 9eba ebc7 28bc
000000e0: 26ec 063d 8dd5 69bd 77bb 803d d390 b13d
000000f0: 6b6f f1bc b965 703d 1875 803b 3def 043d
00000100: 8618 01bd 4ffa 83bd 9aaf 933d 07c0 603d
00000110: df53 7abd 8312 1bbd 8555 ba3c 7dd2 fe3b
00000120: 4667 8cbd 4c4c 833c 7c03 7e3d 2c64 5dbd
00000130: 638e a03d cb26 c0bc 97fa 9b3c 28c4 e1bb
00000140: bac2 073c 6a25 84bc 6f77 7ebd f6c2 103d
00000150: 4f6e 1b3d ced9 8a3d 4a3f 19bc 5909 8cbc
00000160: 3c73 77bb 9229 583c 9d8a 5b3c 6156 1e3d
00000170: 7a9d 983d 2709 463d 357a d9bd f1f6 abba
00000180: 89da a33d 38ad 343d 7770 cb3b 8572 fe3c
00000190: 5a4b 6e3d 4216 87bd 7457 95bc 8a8b 2e3d
000001a0: d732 d03c de7f 93bd 35bf 943d ebdf 6dbd
000001b0: 1dda b6bd 9d10 773c 5d23 afbc 17e2 013d
000001c0: 9008 3cbc 9005 9a3b 0bd4 81bd 47f3 80bd
000001d0: 47cf 563d b80a 943d dbd1 a9bd f5c9 a53c
000001e0: a692 68bd 49ff 593d e036 07bd e8f3 06be
000001f0: fdc8 07bc 7ab2 453b 95a0 233c c5cf 84b9
00000200: 62fe 35bd e214 423d 8591 873d 61c3 5ebd
00000210: 3b83 a0bd d072 89bd 5ac3 3e3b 5ec6 803b
00000220: 9709 09bd c2d0 613d 05b1 bbbd 0855 513c
00000230: 51c2 913d aeb4 90bc e3f3 233d d5f9 213d
00000240: 12d0 40bd 55ad 2c3c 7b1b a7bc 4787 10bc
00000250: 2877 82bc a5ab 4d3c d2c6 233a 5d91 b0bd
00000260: 2f10 16bd 4ffb acbb 4e84 8dbc 6e14 48bb
00000270: 54be 73bd 25a1 a33d c5e4 523d 8343 2c3d
00000280: efe9 2d3d 2dda 4cbd f35e 59bd 5c4a 20bd
00000290: 3dc5 0fbd e578 11bd 858d 18bc 9a3a 7bbd
000002a0: 955f 8c3d 9046 8f3d 5322 b53c ae3a 27bd
000002b0: 0acd 5c3d bf1f db3d 6e0c 95bd 8fe2 523c
000002c0: cd23 d23d 1ea5 d33c af33 b4bd 41b7 f63b
000002d0: a1e0 9d3d 5ba4 7dbd e57a 9f3d 40c8 393d
000002e0: 41fc 72bd b444 8fbd cc6f c4bc 8649 103c
000002f0: 72c5 75bd 78a5 2dbd a706 b8bb d013 afbd
00000300: 87db c23d 90cd bebb 5ecb 9bbd c4c0 103d
00000310: 6b6c 8dbd 6f84 ccbc d49b 023d 3fb6 f3bd
00000320: 04fa a23d 6f0c e13b bcdf f7bd 2d0e 143d
00000330: ca5f aa3c f2c3 0b3d 8711 00bc 7695 57bd
00000340: c6e8 a1bd 5587 943c 2197 9b3d 7cd1 0bbd
00000350: 4cb2 94bd d25a cebc 3275 8d3c 108a 57bc
00000360: 4846 10bd 4383 1d3d 7fcd 353d 97e3 11bc
00000370: aee5 8a3d 0f19 89bd 42ce 3d3d 4929 ef3c
00000380: 0828 ba3d f115 c93c 73b8 f8bc f89a 82bd
00000390: b8db b53c 5e83 04bd ecc2 40bc 60e4 0f3d
000003a0: 2d0b 9b3d f41f 383d d139 303c a213 05bd
000003b0: ced4 db3b 8753 8a3d fc84 e5bc d9b0 913c
000003c0: 8e0e a4bd e76f 9e3b 2479 a73b 8f5d b7bd
000003d0: 3ff8 513d 6108 e9bc 454e 10bd b95d 643d
000003e0: b180 bcbc 4ae8 873d 1ea0 9fbd 8794 f93c
000003f0: e80c c035 653d 26bd 3585 85bc 5ecb f8bc

bias f4 [16]
-0.08893639 0.06652406 -0.027637873 -0.12037209 -0.08716198 0.0513424 -0.04146854 -0.04970889
-0.028489022 -0.048019912 -0.055775564 0.012048806 0.0056640827 0.052150857 0.0073520276 -0.05954521
00000000: 4824 b6bd c43d 883d d268 e2bc a485 f6bd
00000010: fb81 b2bd 694c 523d eada 29bd 8d9b 4bbd
00000020: cf61 e9bc 87b0 44bd eb74 64bd 5b68 453c
00000030: c599 b93b 239c 553d 47e9 f03b aee5 73bd

weight f4 [120, 400]
0.02191717 0.02707597 0.047715876 0.03228137 -0.018285764 -0.001946376 0.03274872 0.034335125
0.012315753 0.055347156 0.049596276 -0.039207082 0.0028213016 -0.026673855 0.037347533 0.004830857
-0.021832531 0.019120054 -0.013012085 0.03409768 -0.0009921984 0.018557984 -0.020550787 0.035059355
0.014532814 -0.016490594 0.046030924 -0.04924507 0.008814925 0.015047664 -0.006541513 -0.04202455
0.0084184185 -0.05600496 -0.037115674 -0.042582788 -0.04240527 -0.0032384256 -0.037868835 0.067566514
-0.00784547 0.0075675366 -0.017830854 -0.0015418349 -0.046260733 0.0202179 -0.04480324 0.014122008
0.051787015 0.035062034 -0.03813209 0.009875938 0.007315043 -0.010651012 -0.005046646 0.013049082
-0.035381842 -0.04039758 -0.06351148 -0.02901408 -0.02600198 0.015135813 0.048214864 -0.03861575
0.0010011651 0.033804875 0.0034483424 -0.030890256 -0.0036124745 -0.026213013 0.02515821 0.03733892
0.018475713 -0.036411323 -0.028539242 0.03539722 -0.04500382 0.043029115 -0.008727593 -0.028724179
0.043979805 -0.017273672 -0.067919575 -0.014589629 -0.00091695116 0.0025384382 -0.06455148 -0.06369571
0.009376923 -0.020176925 -0.078614764 0.022107836 -0.0019616857 -0.03126495 -0.0592618 -0.003158315
-0.023851655 -0.00999875 0.0012092714 -0.04461544 0.021823626 0.043868966 -0.02886025 -0.06619062
-0.013742597 0.047146395 -0.041700646 -0.05577265 -0.043452073 0.027468026 0.03778523 0.013801004
-0.052330155 -0.02211844 -0.026897475 0.016308736 -0.052102968 0.005981696 -0.040386364 0.034664594
0.024638591 -0.025426053 -0.040342085 0.017892223 -0.0037644424 0.03807738 0.0051057786 -0.036318026
0.013079908 0.018488858 0.003706048 -0.016771443 -0.005847426 0.020753888 -0.016191844 -0.044379123
0.01648403 0.028077474 0.065614305 0.005217978 0.052836124 -0.04087125 -0.010864252 -0.036541898
-0.01867091 0.040867146 -0.0163759 -0.01813764 0.037719663 -0.005070186 0.004369824 -0.004074086
0.016020274 -0.051319182 -0.05759816 0.012316297 -0.031435233 -0.063482516 0.005367274 -0.03749762
0.011355759 -0.048302423 0.048072975 -0.052180383 -0.046038397 -0.0062803496 0.022045271 -0.014891397
-0.0075576683 -0.030861124 0.008416925 0.028788367 0.00035315647 -0.056495253 -0.014469189 0.006691078
-0.038463607 0.050032813 0.00040449176 -0.027554402 -0.04222955 -0.028399112 0.049245473 -0.018425299
0.00094031374 -0.036198754 0.03820786 0.04970596 0.033765633 0.021651408 0.034631267 -0.05111103
0.012176235 0.057008754 0.048828404 0.04348819 0.022698851 -0.038246535 0.04120499 0.06090782
0.026547208 0.0047594677 -0.036308777 -0.04888344 -0.02855674 -0.010436277 0.041678134 0.0072002173
-0.023079118 -0.0434339 -0.029279932 -0.009554272 -0.01644302 -0.0098798275 -0.04732136 0.009862013
-0.006630507 0.012082826 -0.034624 0.040630147 -0.026403114 -0.04807265 0.043664295 -0.010269004
-0.060170967 0.036025345 -0.023343222 0.026452957 -0.050218243 0.020313002 -0.0392762 -0.041790918
0.010986511 0.031259876 -0.03975815 -0.0052390182 -0.034545776 -0.05905892 -0.0025493612 -0.021039309
-0.04261819 0.008601712 -0.019178947 0.03663866 -0.0032084542 0.013903649 0.003685653 0.036879167
0.04061931 0.05255908 0.008500774 0.016984874 0.025494196 0.03137403 0.0019389502 -0.011228648
00000000: a38b b33c 6dce dd3c b971 433d 7839 043d
00000010: 07cc 95bc 8b1d ffba 8623 063d fda2 0c3d
00000020: 03c8 493c b3b3 623d 7725 4b3d 9b97 20bd
00000030: 96e5 383b 2183 dabc baf9 183d 2a4c 9e3b
00000040: 23da b2bc a9a1 9c3c a430 55bc 02aa 0b3d
00000050: a70c 82ba ea06 983c 205a a8bc 669a 0f3d
00000060: 0a1b 6e3c 4817 87bc ec8a 3c3d 33b5 49bd
00000070: 7a6c 103c 7a8a 763c 305a d6bb ef21 2cbd
00000080: 68ed 093c 7565 65bd 9b06 18bd 4a6b 2ebd
00000090: 26b1 2dbd c43b 54bb 5a1c 1bbd 5060 8a3d
000000a0: 498a 00bc 19f9 f73b 0312 92bc 6517 caba
000000b0: e57b 3dbd 02a0 a53c 9a83 37bd ff5f 673c
000000c0: 9f1e 543d 359d 0f3d 6530 1cbd b0ce 213c
000000d0: 07b3 ef3b 9581 2ebc 565e a5bb d1cb 553c
000000e0: 8dec 10bd ef77 25bd 4f12 82bd f0ae edbc
000000f0: 1b02 d5bc 33fc 773c f37c 453d 8c2b 1ebd
00000100: 8739 833a fb76 0a3d 96fd 613b 900d fdbc
00000110: 44bf 6cbb acbc d6bc 9718 ce3c b2f0 183d
00000120: 615a 973c 0a24 15bd 21cb e9bc adfc 103d
00000130: ed55 38bd 4c3f 303d 2efe 0ebc f84e ebbc
00000140: 2b24 343d 8481 8dbc 6b19 8bbd 5709 6fbc
00000150: 8d5f 70ba ed5b 263b 9133 84bd e572 82bd
00000160: aaa1 193c 144a a5bc c700 a1bd 7e1b b53c
00000170: a08f 00bb ad0f 00bd 80bc 72bd bcfb 4ebb
00000180: 8c64 c3bc ccd1 23bc 6a80 9e3a aebe 36bd
00000190: 76c7 b23c f2af 333d 556c ecbc f38e 87bd
000001a0: a128 61bc 941c 413d 4cce 2abd dd71 64bd
000001b0: cdfa 31bd a004 e13c afc4 1a3d 9b1d 623c
000001c0: 2558 56bd bb31 b5bc 1858 dcbc e699 853c
000001d0: ec69 55bd 1a02 c43b 2c6c 25bd 76fc 0d3d
000001e0: dfd6 c93c 4c4a d0bc be3d 25bd b692 923c
000001f0: ddb4 76bb 07f7 1b3d 604e a73b 36c2 14bd
00000200: 1c4d 563c f275 973c 2be1 723b 4464 89bc
00000210: c49b bfbb 0f04 aa3c c2a4 84bc e2c6 35bd
00000220: 8409 873c bb02 e63c cb60 863d 92fb aa3b
00000230: b16a 583d 9d68 27bd faff 31bc f5ac 15bd
00000240: bcf3 98bc 4f64 273d c026 86bc 6395 94bc
00000250: ef7f 1a3d ce23 a6bb be30 8f3b e97f 85bb
00000260: f33c 833c 1034 52bd 0cec 6bbd 4bca 493c
00000270: 3bc2 00bd 1f03 82bd f5df af3b 1b97 19bd
00000280: 810d 3a3c c3d8 45bd 2be8 443d 19bb 55bd
00000290: c292 3cbd 64cb cdbb 4998 b43c 0cfb 73bc
000002a0: 51a6 f7bb 78d0 fcbc 24e7 093c 95d5 eb3c
000002b0: dc27 b939 9167 67bd 2d10 6dbc d540 db3b
000002c0: 048c 1dbd 35ef 4c3d f711 d439 c5b9 e1bc
000002d0: e5f8 2cbd 41a5 e8bc 9fb5 493d a7f0 96bc
000002e0: 637f 763a 2545 14bd d87f 1c3d 7a98 4b3d
000002f0: d54d 0a3d 4b5e b13c 84d9 0d3d cd59 51bd
00000300: d57e 473c 0382 693d 4b00 483d ac20 323d
00000310: f1f2 b93c 66a8 1cbd 90c6 283d 7a7a 793d
00000320: 8879 d93c 4ff5 9b3b 83b8 14bd 013a 48bd
00000330: d3ef e9bc ebfc 2abc b1b6 2a3d cdef eb3b
00000340: 6b10 bdbc bfe7 31bd 78dc efbc 8589 1cbc
00000350: 83b3 86bc 00df 21bc 0bd4 41bd 4894 213c
00000360: b944 d9bb 0cf7 453c e5d1 0dbd cc6b 263d
00000370: 584b d8bc d4e7 44bd 55d9 323d 533f 28bc
00000380: d575 76bd 508f 133d 493a bfbc dfb3 d83c
00000390: a5b1 4dbd 7467 a63c 15e0 20bd f42c 2bbd
000003a0: c400 343c 5b0a 003d 71d9 22bd 12ac abbb
000003b0: df7f 0dbd c4e7 71bd 2f13 27bb a15a acbc
000003c0: 6990 2ebd 32ee 0c3c 2b1d 9dbc 6b12 163d
000003d0: ee44 52bb 21cc 633c ff8a 713b 9c0e 173d
000003e0: 6f60 263d 3148 573d d546 0b3c dd23 8b3c
000003f0: 34d9 d03c 0e82 003d 5f24 fe3a 5df8 37bc

bias f4 [120]
0.034324348 0.013148294 -0.006666987 -0.031377986 0.033681504 -0.009395837 -0.049082033 -0.013694639
0.004221293 -0.029045286 -0.0343712 -0.030985387 0.019758698 -0.036591753 0.029512594 -0.02357161
-0.01866652 0.035520043 -0.0010755898 -0.028146382 0.0073114927 0.0101118 -0.050810885 -0.04028503
0.01865878 0.023802996 0.0395896 -0.017351205 0.011395083 -0.025318718 0.020591427 -0.03935795
-0.028882224 -0.035309047 -0.04056934 -0.018634364 0.016342284 -0.02400836 -0.010661079 0.04737406
0.028468467 -0.055779476 -0.01963793 0.0370217 -0.05186234 -0.02042701 -0.046434484 0.033878114
-0.0009806883 0.011409956 0.026096527 0.035981856 0.015898136 0.042053707 0.028128281 -0.03775619
-0.045653906 0.047354147 -0.0028640607 -0.018488301 0.038009144 0.031054873 -0.03322239 0.015813189
-0.02278408 0.010002007 0.0017999907 0.02382991 -0.009314637 0.03004866 0.023998173 -0.053274367
0.015012432 -0.05367658 0.0071528233 -0.047902558 -0.025933662 0.02034363 -0.029564643 0.03821167
0.041528992 0.044097207 -0.018615508 0.023230879 0.037287273 -0.019213218 0.0062159817 -0.018252391
-0.04931724 0.024980687 -0.005887189 0.009098495 0.024645196 0.007644273 0.015410241 0.03376983
-0.011357554 0.01131659 -0.0014609508 0.019587914 0.006169119 0.018646982 -0.049538784 0.017797371
-0.008674342 -0.007963325 0.02081512 -0.041094847 0.051049806 -0.02258851 -0.022073358 -0.04811411
0.04323288 0.03550635 0.011220732 0.007636292 -0.009475769 -0.029121717 -0.019416204 -0.03207983
00000000: b097 0c3d f16b 573c be76 dabb 3486 00bd
00000010: 9ef5 093d fff0 19bc 3e0a 49bd 7b5f 60bc
00000020: c652 8a3b 61f0 edbc d1c8 0cbd 11d5 fdbc
00000030: fedc a13c 3ce1 15bd 65c4 f13c 4019 c1bc
00000040: 88ea 98bc 777d 113d cefa 8cba 3e93 e6bc
00000050: 3f95 ef3b f7ab 253c 131f 50bd ea01 25bd
00000060: 4cda 983c 80fe c23c b428 223d 1d24 8ebc
00000070: 71b2 3a3c 3369 cfbc 5aaf a83c cd35 21bd
00000080: 6a9a ecbc 38a0 10bd 092c 26bd 18a7 98bc
00000090: 41e0 853c 2ead c4bc ceab 2ebc 4d0b 423d
000000a0: b436 e93c 0579 64bd b9df a0bc 11a4 173d
000000b0: 9b6d 54bd 8b56 a7bc 1632 3ebd c7c3 0a3d
000000c0: 708a 80ba d3f0 3a3c 62c8 d53c b661 133d
000000d0: cf3c 823c 8240 2c3d 486d e63c 3ca6 1abd
000000e0: 97ff 3abd 6cf6 413d f7b2 3bbb c774 97bc
000000f0: 7aaf 1b3d ca66 fe3c 3314 08bd a98a 813c
00000100: aea5 babc 75df 233c aaed eb3a f236 c33c
00000110: 6b9c 18bc 9b28 f63c d197 c43c 3936 5abd
00000120: b4f6 753c f9db 5bbd 3b62 ea3b 7935 44bd
00000130: d572 d4bc afa7 a63c 8d31 f2bc d783 1c3d
00000140: 4e1a 2a3d 469f 343d 8d7f 98bc af4e be3c
00000150: 8aba 183d 0a65 9dbc 6faf cb3b 0a86 95bc
00000160: e000 4abd 4ca4 cc3c 52e9 c0bb db11 153c
00000170: b9e4 c93c cf7c fa3b 3c7b 7c3c 3c52 0a3d
00000180: 0915 3abc 3869 393c 607d bfba d576 a03c
00000190: 5226 ca3b 8ec1 983c 2ee9 4abd cbcb 913c
000001a0: d41e 0ebc 9b78 02bc 7884 aa3c 1253 28bd
000001b0: 9a19 513d 8a0b b9bc 30d3 b4bc 4d13 45bd
000001c0: f614 313d 1b6f 113d 29d7 373c dc39 fa3b
000001d0: 4140 1bbc ab90 eebc bb0e 9fbc 2466 03bd

weight f4 [84, 120]
-0.09237185 -0.098951496 0.09040467 -0.087060414 0.083185695 -0.09046296 0.09092042 0.027194299
0.081507035 -0.043128252 -0.08897815 0.014655437 -0.06690775 0.0023615446 -0.020506525 -0.06444494
-0.06870982 -0.016099906 0.019406755 -0.0006809152 0.0063074725 0.07407271 -0.04761055 -0.014223822
-0.009306802 0.011100192 -0.044712294 -0.010258634 0.06349514 0.028333357 0.01788994 -0.10253038
-0.014808744 -0.027758209 0.031421594 0.045008104 -0.071962304 -0.03991273 0.07319524 -0.007920535
0.02088124 -0.028426208 0.07114367 0.074929625 0.02979505 -0.043085977 -0.09326953 -0.044183854
-0.08846735 0.030043423 0.07040621 -0.008826805 0.010131365 -0.029983152 -0.051651556 -0.00296971
-0.012240455 0.093434714 -0.00963271 0.0037612158 0.08388969 -0.073628455 0.08248735 -0.0628902
-0.088832855 -0.07908807 0.051591594 -0.046434738 0.09801295 -0.0023054192 0.028420294 -0.05368445
0.049940996 0.11287807 -0.04665687 0.0452794 -0.10173048 -0.033482034 0.047657236 0.011669117
0.041842405 -0.054751188 -0.027318198 -0.062456023 -0.020307899 0.07996557 0.07966885 0.07492422
-0.029813351 0.06380158 0.08828693 -0.09671462 0.042672876 -0.084835775 0.0016868163 0.12173195
0.061070547 0.04820829 -0.057603296 0.053217553 -0.012258269 0.04480906 0.019901657 0.0765082
-0.0823608 0.111918345 0.049522087 -0.07258998 0.003832534 0.08781211 -0.042804092 0.09575739
-0.04580047 -0.064903155 0.011864514 -0.09796481 0.025422635 -0.0021182129 -0.024207879 -0.015465531
0.045381103 -0.023975799 -0.019143494 -0.048457935 0.030843485 0.010198602 -0.03655704 -0.090056844
-0.09822888 0.023739194 0.016293205 0.038644824 -0.09738656 -0.0012683127 0.087263614 0.015551885
-0.035550028 0.0123817455 0.050445534 -0.08627088 0.06363217 -0.07874233 0.024184026 -0.07989499
0.022290416 -0.070250124 -0.029452523 0.0031228135 0.00063432066 0.08406045 0.029254364 -0.039318893
-0.027550194 0.01902312 -0.011760875 -0.021979347 -0.060653277 -0.06893918 0.07720103 0.09251111
0.068180084 -0.0998126 0.041046865 -0.019902097 0.051225957 -0.09055145 0.021491522 -0.02377507
0.025439426 -0.0013630446 -0.04313755 0.066467494 -0.043409634 -0.07938884 -0.026033083 0.04559525
-0.06517809 -0.06337508 0.09410065 0.016017072 0.008617082 0.008059586 0.0061095348 -0.018179955
-0.05964717 -0.025653426 0.06588251 -0.008503495 -0.1443865 0.072091885 -0.03979876 -0.09134095
-0.0021471113 0.013637373 -0.035236932 0.053676087 0.07718148 -0.060522165 0.12550427 0.058364417
-0.04619218 0.07338162 0.0077115903 -0.06711172 0.007863949 0.049167156 -0.0067165317 -0.03919135
0.008608313 -0.02838404 0.09706979 0.0036452461 0.024992846 0.010874028 -0.06638977 0.09002928
0.103677794 0.08717871 0.03203784 -0.056340072 0.09314115 0.014083355 0.04312537 0.009008495
-0.012193012 -0.060628925 0.019150944 0.049521767 -0.032827884 -0.033966776 0.01420954 0.061974894
0.0068355994 0.009657969 -0.018108653 -0.0142278625 -0.028564082 0.09314557 0.018405246 0.03288071
-0.02763548 -0.07648401 0.04250326 0.05042334 -0.08861451 -0.0698292 -0.06955838 -0.023192208
0.09883329 -0.005194602 -0.049589682 0.11150292 -0.025720157 -0.047678813 -0.08824278 -0.035505336
00000000: 742d bdbd 15a7 cabd 1526 b93d bb4c b2bd
00000010: 435d aa3d a544 b9bd 7c34 ba3d 94c6 de3c
00000020: 29ed a63d 40a7 30bd 2d3a b6bd 5c1d 703c
00000030: ee06 89bd 25c4 1a3b 4dfd a7bc b5fb 83bd
00000040: bcb7 8cbd f3e3 83bc eafa 9e3c 727f 32ba
00000050: eaae ce3b 6fb3 973d 4803 43bd 090b 69bc
00000060: 8f7b 18bc 94dd 353c 3d24 37bd d413 28bc
00000070: bd09 823d 5b1b e83c ec8d 923c 73fb d1bd
00000080: 60a0 72bc 2f65 e3bc eeb3 003d 6b5a 383d
00000090: f960 93bd 887b 23bd 63e7 953d 22c5 01bc
000000a0: 220f ab3c 14de e8bc c6b3 913d b474 993d
000000b0: c014 f43c ec7a 30bd 1804 bfbd 21fa 34bd
000000c0: 5f2e b5bd a01d f63c 2231 903d 4e9e 10bc
000000d0: 06fe 253c 3a9f f5bc 9590 53bd 779f 42bb
000000e0: 308c 48bc b35a bf3d 84d2 1dbc bb7e 763b
000000f0: 5cce ab3d 84ca 96bd 21ef a83d 94cc 80bd
00000100: 00ee b5bd edf8 a1bd b551 533d 5a32 3ebd
00000110: 03bb c83d 8416 17bb add1 e83c 3ae4 5bbd
00000120: ee8e 4c3d 9e2c e73d 461b 3fbd e476 393d
00000130: 1258 d0bd 7524 09bd 3c34 433d d32f 3f3c
00000140: f162 2b3d c842 60bd 6aca dfbc e3d1 7fbd
00000150: c05c a6bc fdc4 a33d 6c29 a33d df71 993d
00000160: 213b f4bc 67aa 823d c7cf b43d 5112 c6bd
00000170: c1c9 2e3d 61be adbd 2a18 dd3a 9a4e f93d
00000180: 1c25 7a3d 0e76 453d 6ff1 6bbd a6fa 593d
00000190: e8d6 48bc b489 373d cd08 a33c 55b0 9c3d
000001a0: c7ac a8bd 7235 e53d acd7 4a3d 0eaa 94bd
000001b0: 402b 7b3b d6d6 b33d 5853 2fbd 731c c43d
000001c0: 4699 3bbd f2eb 84bd 6163 423c c6a1 c8bd
000001d0: 2143 d03c b7d1 0abb 9a4f c6bc 2363 7dbc
000001e0: 89e1 393d e568 c4bc d1d2 9cbc d47b 46bd
000001f0: 7aab fc3c 0a18 273c d6bc 15bd b96f b8bd
00000200: 392c c9bd b378 c23c 5479 853c 094a 1e3d
00000210: 9b72 c7bd 833d a6ba 44b7 b23d 55cd 7e3c
00000220: e89c 11bd cedc 4a3c fa9f 4e3d caae b0bd
00000230: 9551 823d a943 a1bd 941d c63c fc9f a3bd
00000240: 649a b63c 4cdf 8fbd 6b46 f1bc 1ea8 4c3b
00000250: 8a48 263a e327 ac3d d9a6 ef3c d90c 21bd
00000260: f2b0 e1bc 60d6 9b3c afb0 40bc 080e b4bc
00000270: 926f 78bd fc2f 8dbd 931b 9e3d 7776 bd3d
00000280: 00a2 8b3d 8c6a ccbd c220 283d b909 a3bc
00000290: 4fd2 513d 0a73 b9bd fd0e b03c f0c3 c2bc
000002a0: 5866 d03c 30a8 b2ba 00b1 30bd 1c20 883d
000002b0: 4dce 31bd 9e96 a2bd 5543 d5bc 16c2 3a3d
000002c0: 177c 85bd cbca 81bd d7b7 c03d 3c36 833c
000002d0: a92e 0d3c 5b0c 043c 7e32 c83b 21ee 94bc
000002e0: 9750 74bd 2227 d2bc 69ed 863d 3e52 0bbc
000002f0: 0eda 13be e9a4 933d 0604 23bd f710 bbbd
00000300: 8db6 0cbb 4a6f 5f3c 9a54 10bd 75db 5b3d
00000310: 5311 9e3d 17e6 77bd 3184 003e 870f 6f3d
00000320: 0334 3dbd 1a49 963d 82b1 fc3b df71 89bd
00000330: cbd7 003c 8063 493d 5a16 dcbb 1c87 20bd
00000340: e209 0d3c a585 e8bc 87cc c63d 15e5 6e3b
00000350: ccbd cc3c fb28 323c 5cf7 87bd 4561 b83d
00000360: 0655 d43d c08a b23d 1c3a 033d d9c4 66bd
00000370: cac0 be3d dfbd 663c 3aa4 303d 5e98 133c
00000380: 33c5 47bc 0956 78bd 71e2 9c3c 56d7 4a3d
00000390: 8876 06bd bf20 0bbd 21cf 683c 63d9 7d3d
000003a0: 2afd df3b 753c 1e3c 9958 94bc fb1b 69bc
000003b0: 39ff e9bc 1bc3 be3d 99c6 963c ecad 063d
000003c0: cd63 e2bc a6a3 9cbd e617 2e3d b488 4e3d
000003d0: 867b b5bd 9d02 8fbd a074 8ebd 96fd bdbc
000003e0: 1c69 ca3d 7b37 aabb 8d1e 4bbd a55b e43d
000003f0: 14b3 d2bc dc4a 43bd a1b8 b4bd 0b6e 11bd

bias f4 [84]
-0.07478896 0.08310497 0.044327237 0.021635883 -0.03474883 0.08636822 0.051204886 -0.08436332
0.058075417 -0.049865805 0.03064825 -0.033485062 -0.012612982 -0.036301494 -0.004995209 0.058058314
-0.030450752 -0.042178817 0.031656593 -0.02343018 -0.022352392 0.06486148 0.06983387 0.07168665
-0.008366003 0.07930094 -0.010229018 -0.06510552 -0.07335903 0.066607185 -0.016133992 -0.026303135
0.029722035 0.014337458 0.035552174 0.04850256 0.07146456 0.013470708 -0.096098095 0.025739748
0.019426966 -0.043930177 0.07818799 0.046761077 0.0044793854 -0.066946246 -0.044632792 0.04798692
0.022440953 -0.07159672 0.07204462 -0.0005453745 -0.09190317 -0.010015852 -0.021672327 -0.01581162
-0.08808006 -0.08161159 -0.057783753 -0.004394721 0.048861668 -0.064887606 0.0051095355 0.08081542
0.089482106 0.009009384 -0.031065347 -0.057015203 0.06648491 -0.029069856 -0.08701329 -0.0014925797
0.022559639 0.087733924 0.08646578 0.054452967 0.008442549 0.07519447 -0.008228767 0.081572555
0.04697272 -0.0010412909 0.017288726 0.0727031
00000000: f42a 99bd f032 aa3d 7a90 353d bc3d b13c
00000010: ca54 0ebd d2e1 b03d 37bc 513d adc6 acbd
00000020: 7de0 6d3d 1640 4cbd 0a12 fb3c a227 09bd
00000030: aea6 4ebc e0b0 14bd daae a3bb 8ece 6d3d
00000040: db73 f9bc b2c3 2cbd 58aa 013d a6f0 bfbc
00000050: 5d1c b7bc 18d6 843d 0f05 8f3d 73d0 923d
00000060: 8f11 09bc 8868 a23d 9c97 27bc 0b56 85bd
00000070: 423d 96bd 5969 883d 6f2b 84bc ac79 d7bc
00000080: a07b f33c a8e7 6a3c 289f 113d 9faa 463d
00000090: 035c 923d 3fb4 5c3c 14cf c4bd 2adc d23c
000000a0: 4d25 9f3c 21f0 33bd 0621 a03d 8b88 3f3d
000000b0: cfc7 923b 1d1b 89bd e0d0 36bd ef8d 443d
000000c0: 17d6 b73c 4da1 92bd 218c 933d 77f7 0eba
000000d0: bb37 bcbd 8719 24bc 2a8a b1bc 5f87 81bc
000000e0: 5263 b4bd fa23 a7bd a8ae 6cbd 9701 90bb
000000f0: 2c23 483d cbe3 84bd e46d a73b 8e82 a53d
00000100: 6542 b73d 189c 133c c17c febc c688 69bd
00000110: 3e29 883d e823 eebc 0634 b2bd aaa2 c3ba
00000120: fece b83c d8ad b33d f914 b13d 130a 5f3d
00000130: 9e52 0a3c 8fff 993d f3d1 06bc 830f a73d
00000140: 7866 403d ed7b 88ba 16a1 8d3c 5de5 943d

weight f4 [10, 84]
-0.016090909 -0.07556795 0.10129523 0.10564833 0.03957502 -0.06823592 -0.10099577 0.039564572
-0.010975266 -0.062323045 -0.046875317 0.033793427 0.08582468 -0.07350152 0.12988268 0.100525625
-0.12190444 0.07731902 0.09432036 -0.101275004 0.09787398 -0.009695031 -0.107504934 0.008703689
0.03860742 -0.09742358 -0.06321199 -0.14747941 0.117641374 -0.04456775 -0.050366357 0.09452181
-0.07046906 0.022530342 -0.07386796 -0.016721131 0.021194754 0.07263046 -0.053005077 0.027824285
-0.03158823 -0.124510966 -0.0695428 -0.06655292 0.07234526 0.052264556 0.026392357 -0.028024055
0.027570603 -0.050232 0.12102401 -0.037961446 -0.017001173 0.12695403 0.071916014 -0.1337262
0.025146605 -0.124341786 0.04716236 -0.042199515 0.09156173 0.048171006 -0.06156288 0.014330853
0.0009679322 0.038426626 0.10263094 -0.04982559 -0.04946029 -0.05348096 -0.10288355 -0.06572888
-0.0072044106 -0.013223741 0.05485599 0.07144614 -0.04877858 -0.07234331 -0.09546484 -0.038633164
0.024199378 0.09666385 0.023052499 -0.004433641 -0.12527291 -0.11619548 -0.1520966 0.039424196
0.10486737 0.09314661 -0.018957302 0.0050245295 0.07929122 0.0005309326 -0.13316508 -0.11641215
-0.04742198 0.07726232 0.049387485 -0.034644086 0.082853764 0.07364243 0.086176544 0.06808069
-0.04446182 -0.0635406 0.096592136 0.041860137 0.04248928 -0.12213645 -0.025014883 -0.011687273
0.07319564 0.005385454 0.06685619 -0.07516716 0.11515925 -0.083470486 0.107822545 0.048097264
-0.021802207 -0.02842356 -0.071251385 0.08171926 0.040283374 0.016777704 0.058455143 0.026782777
-0.08848696 -0.12421034 -0.09254089 -0.10302189 -0.037079778 -0.07028415 -0.02676116 0.005928567
-0.009603307 0.06913324 -0.09309978 -0.11401102 -0.038315475 -0.04415437 0.0037260526 -0.06377342
0.090890884 0.040467974 0.015900187 -0.08028707 -0.11404882 0.07847503 0.07656187 0.00022788915
0.06685611 -0.015550051 -0.0029200164 -0.068807766 0.019637419 -0.03631346 -0.02949463 0.10206714
-0.068130784 -0.11724311 -0.11616443 -0.045017 0.014524315 -0.08243693 -0.121358566 -0.043316845
0.022140719 0.14125136 -0.07553401 -0.04538352 0.10974572 0.045223307 -0.010976838 -0.08484543
0.014608263 -0.026464388 0.11335462 0.008538395 0.036379352 0.02367874 -0.14184201 -0.034806572
-0.07350932 0.07238844 -0.054139625 0.0019366421 -0.062398985 0.12282947 -0.06243436 0.055539686
-0.09042107 -0.031177338 -0.035575263 0.01673293 0.104458705 -0.11534396 -0.014346168 -0.04288835
-0.12273123 -0.036028087 -0.012127413 0.00260529 0.020307276 -0.086690396 0.068798326 -0.113561675
-0.0320549 0.07950023 -0.1225723 -0.006824276 -0.113788016 -0.028942272 -0.06866953 -0.061451193
-0.010816691 0.034262866 0.03516301 0.070053525 0.04597254 0.07815175 0.034142993 -0.117945865
-0.054709986 0.011944257 -0.025928985 0.0084866015 0.08101126 -0.024932988 0.01977066 -0.035904244
0.06905589 0.030178953 -0.12271951 0.04187104 0.13826771 -0.04060795 -0.049561672 -0.030317992
0.139652 0.09129635 0.14813732 -0.119778395 0.063517675 0.100990586 -0.101996794 -0.11862863
-0.048921645 -0.0255606 -0.0755778 -0.08716185 0.008741548 0.06305376 0.021791782 -0.093601584
00000000: 15d1 83bc 5fc3 9abd e073 cf3d 275e d83d
00000010: 6b19 223d 46bf 8bbd dfd6 cebd 760e 223d
00000020: 9ad1 33bc 7346 7fbd 5500 40bd fa6a 0a3d
00000030: dac4 af3d f787 96bd f7ff 043e 61e0 cd3d
00000040: 09a9 f9bd 6f59 9e3d 082b c13d 4569 cfbd
00000050: 2772 c83d e8d7 1ebc 8c2b dcbd eb99 0e3c
00000060: d022 1e3d 0486 c7bd 4a75 81bd d804 17be
00000070: f6ed f03d ac8c 36bd f44c 4ebd a794 c13d
00000080: 1552 90bd 8d91 b83c 1648 97bd c1fa 88bc
00000090: 9fa0 ad3c 47bf 943d da1b 59bd c1ef e33c
000000a0: a962 01bd 9bff febd 756c 8ebd e64c 88bd
000000b0: c029 943d 5c13 563d c934 d83c b492 e5bc
000000c0: bfdb e13c 12c0 4dbd 70db f73d 767d 1bbd
000000d0: 0b46 8bbc 3d00 023e b448 933d 85ef 08be
000000e0: 4100 ce3c e8a6 febd 522d 413d 66d9 2cbd
000000f0: b784 bb3d f64e 453d 5c29 7cbd f4cb 6a3c
00000100: d5bc 7d3a 3d65 1d3d 2c30 d23d eb15 4cbd
00000110: e096 4abd da0e 5bbd 9cb4 d2bd dd9c 86bd
00000120: fa12 ecbb 64a8 58bc adb0 603d 5b52 923d
00000130: 0ccc 47bd bb28 94bd 1283 c3bd cf3d 1ebd
00000140: c63d c63c b2f7 c53d 98d8 bc3c 1448 91bb
00000150: 8b47 00be e5f7 edbd 36bf 1bbe 447b 213d
00000160: b4c4 d63d a6c3 be3d 584c 9bbc cfa4 a43b
00000170: 6f63 a23d 492e 0b3a 6d5c 08be 7e69 eebd
00000180: 8d3d 42bd b53b 9e3d 884a 4a3d f5e6 0dbd
00000190: 3caf a93d d8d1 963d 547d b03d e46d 8b3d
000001a0: 991d 36bd 9321 82bd 19d2 c53d 8975 2b3d
000001b0: 3d09 2e3d ad22 fabd 03ec ccbc fa7b 3fbc
000001c0: 99e7 953d 7678 b03b e6eb 883d 3df1 99bd
000001d0: 9dd8 eb3d 93f2 aabd 11d2 dc3d a301 453d
000001e0: 8b9a b2bc 87d8 e8bc 3fec 91bd 6d5c a73d
000001f0: 2e00 253d 6571 893c a96e 6f3d 8e67 db3c
00000200: a738 b5bd fe61 febd 1486 bdbd 24fd d2bd
00000210: f7e0 17bd 23f1 8fbd 383a dbbc 6d44 c23b
00000220: 3057 1dbc ba95 8d3d 19ab bebd 9c7e e9bd
00000230: b0f0 1cbd 36db 34bd ca30 743b a49b 82bd
00000240: 0025 ba3d bfc1 253d 1c41 823c 8c6d a4bd
00000250: 6e92 e9bd 84b7 a03d 78cc 9c3d 87f5 6e39
00000260: dbeb 883d a4c5 7ebc bf5d 3fbb 16eb 8cbd
00000270: a7de a03c 6cbd 14bd b99e f1bc 9408 d13d
00000280: 2788 8bbd 281d f0bd 9ee7 edbd bf63 38bd
00000290: 64f7 6d3c b1d4 a8bd d78a f8bd 016d 31bd
000002a0: 7460 b53c 32a4 103e 93b1 9abd 12e4 39bd
000002b0: 5dc2 e03d 133c 393d 32d8 33bc 71c3 adbd
000002c0: 7f57 6f3c d8cb d8bc 7826 e83d a0e4 0b3c
000002d0: 8402 153d ebf9 c13c 083f 11be 5691 0ebd
000002e0: 0e8c 96bd 6440 943d 83c1 5dbd edd6 fd3a
000002f0: 1496 7fbd 048e fb3d 2cbb 7fbd 957d 633d
00000300: af2e b9bd 9e67 ffbc 5eb7 11bd 7f13 893c
00000310: 72ee d53d 7439 ecbd 310c 6bbc b2ab 2fbd
00000320: 835a fbbd 3092 13bd 0fb2 46bc 83bd 2a3b
00000330: 725b a63c bc8a b1bd 23e6 8c3d 0693 e8bd
00000340: 004c 03bd 04d1 a23d 3007 fbbd 2d9e dfbb
00000350: b109 e9bd 5818 edbc 9ca2 8cbd 3fb4 7bbd
00000360: 7e38 31bc 3857 0c3d 1707 103d 3978 8f3d
00000370: b44d 3c3d 060e a03d 86d9 0b3d 9a8d f1bd
00000380: 9417 60bd d8b1 433c 0669 d4bc 630b 0b3c
00000390: 3be9 a53d 4440 ccbc 14f6 a13c 5410 13bd
000003a0: 2d6d 8d3d da39 f73c 5e54 fbbd f880 2b3d
000003b0: 0d96 0d3e 8654 26bd 2e01 4bbd 705d f8bc
000003c0: ef00 0f3e 95f9 ba3d 4fb1 173e 604e f5bd
000003d0: 8e15 823d 27d4 ce3d b2e3 d0bd 91f3 f2bd
000003e0: 1062 48bd 7764 d1bc 89c8 9abd e981 b2bd
000003f0: b638 0f3c 5422 813d ae84 b23c 30b2 bfbd

bias f4 [10]
0.018780662 0.075191565 -0.0038962301 0.01183867 -0.0760941 0.06953935 -0.035731252 -0.064009756
-0.023313537 -0.08677368
00000000: e7d9 993c 09fe 993d e557 7fbb fbf6 413c
00000010: 39d7 9bbd a66a 8e3d ef5a 12bd 8c17 83bd
00000020: 08fc bebc 66b6 b1bd
