CNN_dict.pt (torch, 250695 bytes, 20 tensors)

Conv1.weight f4 [6, 1, 5, 5]
0.23203672 0.26266575 0.15237874 0.050724372 -0.1414666 0.2126193 0.23441085 0.17863092
-0.0942758 -0.3196139 -0.091743775 -0.25377512 -0.2433411 -0.4095035 -0.21399806 -0.4114671
-0.36788717 -0.4222136 -0.044130806 0.13086884 -0.20806389 -0.13214609 0.12672819 0.034203444
0.062361944 -0.005441966 -0.18070532 -0.011291176 -0.0841429 -0.16828507 -0.3975823 -0.05085667
0.17008486 0.016586863 0.18970256 -0.2848862 0.037749816 0.23084326 0.30043566 0.11621751
0.07359696 0.100812584 0.011156087 0.19302617 -0.1408305 -0.16760932 0.005533733 0.06529913
0.089754604 0.020366257 -0.048189253 0.014997125 -0.02963754 -0.023026878 -0.18738018 0.07339831
0.18687366 0.14323437 -0.28667626 -0.3132094 0.0477107 -0.021434337 0.29649 -0.21664275
-0.080386706 -0.15799037 0.10918648 0.28735074 -0.09348851 -0.05562735 -0.092774086 -0.06530008
0.20358801 0.15289266 -0.030637698 -0.5199568 -0.23453267 0.20420836 -0.06909345 0.07721873
-0.3192217 -0.56547475 -0.21948762 -0.1349002 -0.12988797 -0.085228644 -0.3996978 -0.12795568
-0.03217972 0.006492023 0.18088692 -0.13414319 0.14212902 0.029951494 0.20363146 0.210235
0.11452224 0.22308464 0.13759229 0.05908059 -0.2727092 0.16567786 -0.058302436 0.07832754
-0.267866 -0.030687705 0.16792887 0.07752166 -0.13531847 -0.33371717 -0.03587851 0.20096442
0.058092106 -0.05509459 -0.4958552 0.2598749 -0.039597254 0.018355262 -0.2826442 -0.33485776
0.092670865 0.07006857 -0.1187046 -0.2688794 -0.21400224 0.089259714 -0.07759605 -0.31646207
-0.14255172 -0.102714434 -0.01865159 -0.019169789 -0.057391338 0.10044795 0.080857836 0.15533318
0.27603748 0.30959266 0.11241413 -0.06745073 -0.15752165 0.0062414696 -0.027084038 0.08517273
0.0701208 -0.29655945 -0.31172696 -0.07670876 -0.030529616 -0.016989907
00000000: 099b 6d3e 207c 863e 2c09 1c3e 5cc4 4f3d
00000010: 9fdc 10be e0b8 593e 6609 703e 06eb 363e
00000020: ac13 c1bd 6fa4 a3be 29e4 bbbd d0ee 81be
00000030: 692e 79be 71aa d1be 4f22 5bbe d1ab d2be
00000040: b55b bcbe 622c d8be 81c2 34bd 7b02 063e
00000050: b30e 55be 4e51 07be 09c5 013e e918 0c3d
00000060: 3d6f 7f3d 8552 b2bb d10a 39be a0fe 38bc
00000070: 1d53 acbd ec52 2cbe e88f cbbe 154f 50bd
00000080: ba2a 2e3e 2ce1 873c 6341 423e 9bdc 91be
00000090: 8d9f 1a3d 2d62 6c3e b4d2 993e 7203 ee3d
000000a0: 01ba 963d d476 ce3d 05c8 363c a7a8 453e
000000b0: df35 10be c7a1 2bbe 5154 b53b 8dbb 853d
000000c0: 43d1 b73d 23d7 a63c 1862 45bd 80b6 753c
000000d0: 6dca f2bc dda2 bcbc 97e0 3fbe da51 963d
000000e0: cf5b 3f3e 08ac 123e 3bc7 92be fc5c a0be
000000f0: 4c6c 433d 1097 afbc 8acd 973e 99d7 5dbe
00000100: c9a1 a4bd 3ac8 21be 299d df3d a31f 933e
00000110: e776 bfbd 81d9 63bd 5700 bebd 0cbc 85bd
00000120: 6079 503e e58f 1c3e e9fb fabc e41b 05bf
00000130: 5529 70be ff1b 513e de80 8dbd da24 9e3d
00000140: 0771 a3be f4c2 10bf 5dc1 60be 4723 0abe
00000150: 5a01 05be 5b8c aebd 31a5 ccbe d006 03be
00000160: e2ce 03bd 09bb d43b 6c3a 393e d55c 09be
00000170: 458a 113e d65c f53c c484 503e d847 573e
00000180: a38a ea3d 4d70 643e fee4 0c3e 7dfe 713d
00000190: 8aa0 8bbe 75a7 293e 89ce 6ebd 306a a03d
000001a0: bb25 89be c864 fbbc 8cf5 2b3e adc3 9e3d
000001b0: ed90 0abe fadc aabe 58f5 12bd 9ec9 4d3e
000001c0: fdf1 6d3d ddaa 61bd bce0 fdbe 530e 853e
000001d0: bb30 22bd c65d 963c beb6 90be 7a72 abbe
000001e0: 39ca bd3d 1c80 8f3d 661b f3bd 90aa 89be
000001f0: 6723 5bbe cccd b63d aeea 9ebd 5107 a2be
00000200: 14f9 11be f25b d2bd 38cb 98bc f609 9dbc
00000210: 2e13 6bbd a8b7 cd3d cb98 a53d a90f 1f3e
00000220: c954 8d3e ee82 9e3e 6139 e63d 9c23 8abd
00000230: 5b4d 21be 3e85 cc3b 58df ddbc 0a6f ae3d
00000240: 7e9b 8f3d a4d6 97be ad9a 9fbe 7b19 9dbd
00000250: 3f19 fabc 6b2e 8bbc

Conv1.bias f4 [6]
0.34597003 -0.32922986 -0.15610279 -0.16856639 -0.19730835 -0.4014759
00000000: fc22 b13e d190 a8be 69d9 1fbe ab9c 2cbe
00000010: 330b 4abe 408e cdbe

Conv2.weight f4 [16, 6, 5, 5]
0.128115 0.120112196 0.22883289 0.22227779 -0.039566908 0.062721506 0.09155339 -0.013071558
-0.17568809 -0.025585882 -0.12790047 -0.1127657 -0.19199854 -0.16347472 -0.07109673 0.097359926
0.02998496 -0.09294963 -0.04807473 0.0010532116 -0.053390354 0.03299597 0.07129537 0.049414363
0.054291885 -0.0134694 -0.21967737 -0.26530522 -0.15167084 0.07344575 0.046360794 -0.0998968
0.030927818 0.08753725 0.081666045 0.15547702 0.1498149 -0.0041814866 -0.106045194 -0.11231844
-0.0031902986 0.06270163 0.09586025 0.07113976 0.038931653 -0.1621366 -0.08286252 0.029410515
0.005077732 -0.048258338 -0.12344548 -0.044823423 -0.06094098 -0.17555611 -0.24985766 -0.10225433
0.0756549 0.053813294 -0.15504049 -0.0037621506 0.025782438 0.0251555 0.09692596 0.06260779
-0.048322313 0.07610724 0.03889692 0.05806995 0.14444846 -0.03659196 -0.097513914 -0.18307959
-0.01656328 0.08181187 -0.0739745 0.0043540867 -0.061872486 0.026632238 0.026104147 0.14615178
0.12989657 0.12467755 0.075433046 0.029038481 0.017291946 0.21206577 0.15578966 -0.036308438
0.035400707 -0.014165521 -0.16501836 -0.2455368 -0.1950193 -0.11054749 0.0008445736 -0.24259168
-0.10391499 -0.13380076 -0.115944356 -0.2046723 -0.08649658 0.0027128207 -0.14408186 -0.33707425
-0.26519677 -0.111308746 -0.1953045 -0.0400862 -0.053672306 -0.06357835 -0.2486125 -0.07174406
0.041828133 -0.03072261 -0.04996204 0.026067993 -0.07634835 -0.08153788 -0.06361697 -0.012091045
-0.07785076 -0.17562963 0.015133459 -0.0574713 -0.116657026 0.020921407 -0.14889468 -0.1788858
-0.2803337 0.028217642 -0.15603851 0.05752381 -0.06746748 -0.004197665 0.12880059 0.13108003
0.083655275 0.16464686 -0.11389131 -0.07575111 0.07586919 0.123400666 0.09189596 0.15990014
0.035046864 -0.19003339 -0.11156578 0.037130542 0.052492544 0.06280528 0.063200876 -0.08027492
-0.0919723 -0.32865384 -0.0019288957 0.25463116 0.14910266 -0.08807119 -0.059606306 -0.0433375
0.020396397 0.042826988 0.06016591 0.13052794 0.106557645 -0.083422564 0.11632676 0.21913813
0.16461197 0.20187525 -0.07290891 -0.08930658 -0.015731309 0.024438834 -0.019715734 -0.023730254
-0.3563209 -0.1736769 -0.115443856 -0.092064515 -0.09390097 -0.109396696 0.034387007 -0.06375616
-0.03600056 -0.06454629 0.1627691 0.14361466 0.13603926 -0.08105702 -0.036139403 0.04401112
-0.065358855 -0.08613965 -0.014683759 -0.060553063 -0.12020059 -0.23999058 -0.09408918 -0.04927562
-0.00011025294 -0.057851262 -0.31276867 -0.16808818 -0.12590358 -0.017033663 -0.03993846 -0.10029524
-0.07106268 0.019308375 -0.09368274 0.06788579 -0.082447775 0.07755867 0.19621544 -0.037130814
-0.06260358 -0.039792567 -0.048900142 0.070514105 0.08755472 0.06911908 0.047700543 -0.18677992
-0.14008954 0.09720005 -0.110627055 -0.07968444 -0.04946597 -0.13460898 0.06986805 0.1018346
0.20761566 0.24784555 0.12939408 0.06687209 0.098468326 0.0835479 -0.07064217 -0.09724802
0.017566405 -0.10303524 -0.39322704 -0.25313365 -0.17110446 0.059429783 -0.05276041 0.096669994
0.21896224 0.033665918 0.0677839 -0.008512656 -0.1531787 -0.13963693 0.045772072 -0.022179367
00000000: 9430 033e 62fd f53d 2b53 6a3e ca9c 633e
00000010: e910 22bd 2274 803d 5880 bb3d 172a 56bc
00000020: 94e7 33be 7c99 d1bc 57f8 02be b4f1 e6bd
00000030: 449b 44be eb65 27be 2a9b 91bd a464 c73d
00000040: 05a3 f53c 605c bebd 02ea 44bd eb0b 8a3a
00000050: d8af 5abd c826 073d 4f03 923d b766 4a3d
00000060: 2b61 5e3d c2ae 5cbc 1bf3 60be 16d6 87be
00000070: 9a4f 1bbe ba6a 963d d1e4 3d3d b296 ccbd
00000080: 565c fd3c bb46 b33d 8740 a73d 5e35 1f3e
00000090: 1469 193e da04 89bb 392e d9bd 3607 e6bd
000000a0: 5414 51bb b669 803d 6152 c43d b9b1 913d
000000b0: cc76 1f3d 2307 26be d3b3 a9bd 52ee f03c
000000c0: 1a63 a63b 89aa 45bd fcd0 fcbd c498 37bd
000000d0: 409d 79bd fbc4 33be b0da 7fbe b86a d1bd
000000e0: f5f0 9a3d 546b 5c3d efc2 1ebe 6a8e 76bb
000000f0: b135 d33c e812 ce3c 1e81 c63d 8338 803d
00000100: 9eed 45bd 1dde 9b3d 6052 1f3d c2da 6d3d
00000110: 4cea 133e 73e1 15bd 60b5 c7bd 3779 3bbe
00000120: b7af 87bc fb8c a73d f17f 97bd baac 8e3b
00000130: 016e 7dbd da2b da3c 5dd8 d53c d0a8 153e
00000140: 9b03 053e f156 ff3d a47c 9a3d 1ce2 ed3c
00000150: d7a7 8d3c c527 593e 5387 1f3e 28b8 14bd
00000160: 5500 113d 8016 68bc 93fa 28be 006e 7bbe
00000170: 24b3 47be b966 e2bd 6066 5d3a f469 78be
00000180: 62d1 d4bd 1103 09be 3c74 edbd 9e95 51be
00000190: 1e25 b1bd 94c9 313b 328a 13be ff94 acbe
000001a0: dfc7 87be d7f5 e3bd e7fd 47be 6d31 24bd
000001b0: 7ed7 5bbd 5e35 82bd 4694 7ebe 8dee 92bd
000001c0: fa53 2b3d fcad fbbc ffa4 4cbd 8b8c d53c
000001d0: 865c 9cbd 55fd a6bd 9d49 82bd 8519 46bc
000001e0: 3870 9fbd 41d8 33be 54f2 773c 0767 6bbd
000001f0: e1e9 eebd 5f63 ab3c d977 18be d72d 37be
00000200: e687 8fbe af28 e73c 8fc8 1fbe 169e 6b3d
00000210: 642c 8abd 918c 89bb 4de4 033e d839 063e
00000220: 7553 ab3d 3099 283e d93f e9bd 6623 9bbd
00000230: 4e61 9b3d 7db9 fc3d f333 bc3d ddbc 233e
00000240: 4d8d 0f3d 1d98 42be 9a7c e4bd 3216 183d
00000250: 6c02 573d 0ea0 803d 766f 813d 2d67 a4bd
00000260: f95b bcbd 5145 a8be 00d3 fcba 045f 823e
00000270: 5eae 183e ab5e b4bd be25 74bd aa82 31bd
00000280: 5816 a73c 5a6b 2f3d 8770 763d 1ea9 053e
00000290: e53a da3d 73d9 aabd b93c ee3d bf65 603e
000002a0: 0a90 283e 63b8 4e3e 4451 95bd 5ee6 b6bd
000002b0: f2de 80bc f333 c83c e482 a1bc f365 c2bc
000002c0: b16f b6be 5bd8 31be d46d ecbd 528c bcbd
000002d0: 274f c0bd 600b e0bd 64d9 0c3d 9792 82bd
000002e0: 5375 13bd d830 84bd f1ac 263e b90f 133e
000002f0: e04d 0b3e 3901 a6bd e906 14bd 0145 343d
00000300: ddda 85bd fc69 b0bd 2694 70bc 7d06 78bd
00000310: ba2b f6bd 17c0 75be d4b1 c0bd 3cd5 49bd
00000320: 9937 e7b8 72f5 6cbd 3723 a0be 4f1f 2cbe
00000330: deec 00be 2e8a 8bbc 8396 23bd 9767 cdbd
00000340: 4f89 91bd 992c 9e3c bddc bfbd b407 8b3d
00000350: 61da a8bd 14d7 9e3d b3ec 483e 7b16 18bd
00000360: 4e36 80bd 88fd 22bd 844b 48bd b369 903d
00000370: e44f b33d 4e8e 8d3d a561 433d 3c43 3fbe
00000380: a273 0fbe d210 c73d 7090 e2bd 9831 a3bd
00000390: d49c 4abd f0d6 09be fb16 8f3d a98e d03d
000003a0: 3399 543e 39cb 7d3e e27f 043e 3cf4 883d
000003b0: c3a9 c93d 291b ab3d d8ac 90bd f829 c7bd
000003c0: 6ce7 8f3c 2404 d3bd 0e55 c9be bc9a 81be
000003d0: 0236 2fbe a56c 733d 4d1b 58bd ebfa c53d
000003e0: a337 603e 46e5 093d 49d2 8a3d ab78 0bbc
000003f0: e1da 1cbe fcfc 0ebe 7f7b 3b3d 81b1 b5bc

Conv2.bias f4 [16]
-0.08947153 -0.15608574 -0.2930851 -0.06089583 -0.118895285 -0.084722586 -0.12434063 -0.2682101
-0.09901119 -0.012721869 -0.14262679 -0.07479012 -0.2665295 -0.0779562 -0.038712602 0.018149203
00000000: d93c b7bd f1d4 1fbe 400f 96be e86d 79bd
00000010: 5f7f f3bd 0983 adbd 4da6 febd d652 89be
00000020: 61c6 cabd 636f 50bc c20c 12be 902b 99bd
00000030: 8e76 88be 80a7 9fbd 1b91 1ebd a3ad 943c

FC1.weight f4 [120, 400]
-0.007945337 -0.13673955 -0.041633803 0.021466052 0.062798016 -0.13378453 0.038791623 -0.02225495
-0.13496049 0.040200498 -0.088888675 -0.1354173 -0.019186506 0.004760865 -0.021658912 0.03963853
0.007935803 -0.040505733 -0.041002423 0.0076850858 -0.023778219 -0.036182005 0.026929159 -0.029267408
-0.06447556 -0.22948483 -0.20027608 -0.21347106 -0.13091359 -0.011663043 -0.08116276 -0.054259274
0.0037302915 0.088316426 0.11523383 -0.16364127 -0.20412652 0.055854246 0.05313802 -0.045427512
-0.054714594 0.036953367 0.09091666 -0.044007614 0.02413133 0.018527307 0.042499453 -0.14289108
-0.011106477 0.07689906 -0.15298145 0.09477959 0.11028424 0.051830783 0.12825787 -0.020150539
0.07533123 -0.023492701 -0.0178558 -0.038148522 0.019521452 0.16361834 -0.07360071 0.00323784
-0.09441521 0.020200195 -0.006078502 -0.029205132 -0.14117725 -0.14861007 0.15933421 -0.044529878
-0.01260776 -0.06589406 -0.06947942 -0.19382119 -0.10790639 -0.07576771 0.038470186 0.02837589
-0.12694232 -0.04156803 -0.06991378 -0.00047627126 0.07750376 -0.122754 -0.09160852 -0.20507291
-0.11120128 -0.086440235 -0.018195495 -0.03098198 -0.10514845 -0.02536029 -0.08402164 -6.879272e-05
-0.12918684 -0.052182823 0.018069612 -0.017807277 -0.04912778 0.035751488 0.092073634 -0.017355695
0.046147462 -0.18362169 0.044879157 -0.010263429 -0.0018114058 0.02122714 -0.104812674 -0.18595651
1.9495339e-05 0.027379258 0.021030463 -0.026741771 -0.18790706 0.08210864 0.07509554 -0.03354429
-0.062985435 0.005616879 0.10236785 0.022727812 -0.1703583 -0.13221908 -0.08723945 0.07865855
-0.016443344 0.042555172 -0.07425456 -0.018942509 0.10213883 -0.013326746 -0.08771173 -0.029347882
0.040843546 -0.0038644832 -0.10558488 -0.006913097 -0.026507482 -0.03957697 -0.18256971 -0.06787192
-0.06807054 -0.049846184 -0.09664024 0.010825366 0.08987937 0.07983037 -0.16471511 -0.047207184
0.08983193 -0.024205217 -0.013826549 -0.11748436 -0.020542689 0.021560393 -0.2438576 -0.058765307
0.086540416 0.21010596 0.042362124 -0.04354019 -0.041446734 0.047166552 0.027820943 -0.054994605
-0.081857875 -0.09164083 0.043434195 0.12121627 0.093861505 -0.0015700725 -0.09436469 -0.11199571
0.019583087 0.024123468 -0.07899328 0.037852135 -0.038211945 -0.008690039 -0.040402014 0.03565453
-0.17476884 -0.054656006 0.011121693 -0.049702164 -0.07121911 -0.08478258 0.031021718 -0.053444866
-0.08562912 -0.020651234 -0.12612143 0.00081505557 -0.09512807 -0.023595195 -0.0958476 -0.050153393
-0.12472914 0.0031922015 -0.05317628 0.005766516 0.20051679 -0.12329562 0.040932838 0.14284754
0.07086195 0.09182525 -0.01440879 -0.0052688452 -0.056181654 0.029712848 -0.19560194 0.054020196
0.14869155 0.014438648 0.054104663 -0.08991927 -0.03355165 -0.102453485 -0.005584716 0.0013233013
-0.17583583 -0.069840126 -0.047710657 -0.022146232 0.13555305 0.01469901 0.015488344 0.010843403
0.12243007 0.10264956 0.021054035 0.14936258 0.029811531 0.10716606 0.012865889 -0.022205746
-0.015680823 0.033319984 0.0046620728 -0.015416603 0.06498916 0.044450954 0.074293494 0.026761426
0.045304008 -0.079379484 -0.08586647 -0.10927567 -0.050119247 0.004702967 0.07337683 -0.045752466
00000000: 292d 02bc 7405 0cbe 3588 2abd 93d9 af3c
00000010: 3f9c 803d d0fe 08be f7e3 1e3d 0350 b6bc
00000020: 1533 0abe 47a9 243d 440b b6bd d5aa 0abe
00000030: 052d 9dbc 0801 9c3b 086e b1bc 035c 223d
00000040: 2c05 023c 57e9 25bd 28f2 27bd 2cd3 fb3b
00000050: 8aca c2bc 9533 14bd 8a9a dc3c 34c2 efbc
00000060: c30b 84bd 12fe 6abe 2c15 4dbe 2898 5abe
00000070: 360e 06be 5916 3fbc a938 a6bd f93e 5ebd
00000080: e877 743b 3edf b43d b7ff eb3d 9491 27be
00000090: 8b06 51be 6cc7 643d 41a7 593d 3312 3abd
000000a0: 691c 60bd 6a5c 173d 8432 ba3d 5441 34bd
000000b0: 11af c53c 94c6 973c e813 2e3d 0a52 12be
000000c0: f1f7 35bc 417d 9d3d 2ba7 1cbe cd1b c23d
000000d0: b4dc e13d 844c 543d 0856 033e be12 a5bc
000000e0: 4347 9a3d c473 c0bc 5446 92bc a041 1cbd
000000f0: 74eb 9f3c 918b 273e f8bb 96bd f131 543b
00000100: c35c c1bd e17a a53c 2c2e c7bb 9a3f efbc
00000110: c590 10be 3d2d 18be 8228 233e f664 36bd
00000120: c790 4ebc 77f3 86bd 3a4b 8ebd 1079 46be
00000130: 07fe dcbd 1a2c 9bbd ea92 1d3d 8e74 e83c
00000140: 2bfd 01be 3d43 2abd f52e 8fbd 0cb4 f9b9
00000150: 4bba 9e3d 7366 fbbd 3f9d bbbd a2fe 51be
00000160: 7fbd e3bd 9407 b1bd b80e 95bc eccd fdbc
00000170: 1258 d7bd 62c0 cfbc 8a13 acbd cf44 90b8
00000180: 8e49 04be a8bd 55bd b906 943c 91e0 91bc
00000190: 363a 49bd 2770 123d 1a91 bc3d 882d 8ebc
000001a0: 1f05 3d3d 5307 3cbe 35d3 373d f127 28bc
000001b0: b16c edba 8ae4 ad3c 07a8 d6bd 626b 3ebe
000001c0: ec89 a337 774a e03c 1448 ac3c 8f11 dbbc
000001d0: b56a 40be 9328 a83d b1cb 993d bd65 09bd
000001e0: 82fe 80bd cc0d b83b 3ca6 d13d ad2f ba3c
000001f0: 6872 2ebe 7064 07be 99aa b2bd bc17 a13d
00000200: 31b4 86bc 554e 2e3d c612 98bd 522d 9bbc
00000210: 2a2e d13d 6d58 5abc 35a2 b3bd f86a f0bc
00000220: 904b 273d 4543 7dbb e33c d8bd 4387 e2bb
00000230: 3826 d9bc 761b 22bd 8ef3 3abe 6f00 8bbd
00000240: 9168 8bbd 832b 4cbd 51eb c5bd e05c 313c
00000250: ad12 b83d 1b7e a33d 14ab 28be 525c 41bd
00000260: cef9 b73d 054a c6bc c088 62bc a49b f0bd
00000270: 2449 a8bc 6c9f b03c cfb5 79be e4b3 70bd
00000280: 1a3c b13d 0426 573e e883 2d3d 3357 32bd
00000290: 0dc4 29bd b731 413d bfe8 e33c 0642 61bd
000002a0: 1aa5 a7bd 30ae bbbd 0ee8 313d 3c40 f83d
000002b0: 763a c03d e4ca cdba 4642 c1bd 025e e5bd
000002c0: b66c a03c 949e c53c 3bc7 a1bd d70a 1b3d
000002d0: 2184 1cbd aa60 0ebc 957c 25bd 7c0a 123d
000002e0: 9af6 32be fade 5fbd c337 363c 7f94 4bbd
000002f0: 53db 91bd 7da2 adbd 4221 fe3c 01e9 5abd
00000300: 525e afbd c72c a9bc fa25 01be 74a9 553a
00000310: 81d2 c2bd b64a c1bc bf4b c4bd a56d 4dbd
00000320: fe71 ffbd 4134 513b 5fcf 59bd 0bf5 bc3b
00000330: 4654 4d3e 6a82 fcbd 31a9 273d a046 123e
00000340: 1220 913d e00e bc3d d812 6cbc 47a6 acbb
00000350: bc1e 66bd 5c68 f33c e04b 48be 4844 5d3d
00000360: 9942 183e 1490 6c3c da9c 5d3d 9827 b8bd
00000370: 746d 09bd 22d3 d1bd feff b6bb a072 ad3a
00000380: 4f0e 34be 5708 8fbd 406c 43bd 046c b5bc
00000390: 6bce 0a3e 1ed4 703c d3c2 7d3c 87a8 313c
000003a0: 9ebc fa3d ef39 d23d 8379 ac3c 81f2 183e
000003b0: 5037 f43c e179 db3d 73cb 523c d3e8 b5bc
000003c0: 1275 80bc 897a 083d 4dc4 983b eb95 7cbc
000003d0: 0919 853d 3412 363d 3027 983d c73a db3c
000003e0: b290 393d b691 a2bd c3da afbd eccb dfbd
000003f0: d749 4dbd 591b 9a3b 9746 963d f066 3bbd

FC1.bias f4 [120]
0.010504524 -0.03301514 -0.045215745 -0.072231226 -0.04022127 -0.028158894 -0.05735777 -0.047368318
0.026743256 0.0131576825 -0.04821848 -0.07725303 -0.05382299 -0.042290024 -0.04307901 -0.053324707
-0.023971548 -0.037428554 -0.057647295 -0.018317122 -0.114664055 -0.044653602 -0.051855307 -0.067457296
-0.0018359156 0.032930415 -0.07789342 -0.047671948 0.012698025 -0.07068886 0.007539679 -0.036024567
-0.07043027 0.0010329059 -0.0019406844 -0.0352861 -0.046712395 -0.013326072 -0.031386886 -0.03885284
-0.05308412 0.007247423 0.057950083 -0.07912372 -0.035306435 0.020387478 -0.052423626 -0.025389498
-0.017245082 -0.031644963 -0.003251539 -0.04267499 -0.08205539 0.03436609 0.022144841 -0.1108125
0.011760233 0.00047177376 -0.004819435 -0.035624053 -0.08163426 -0.051434632 0.06965152 0.0343518
-0.0019067443 0.011932122 0.026905533 -0.022184437 -0.012777407 -0.076424986 -0.058598347 -0.060623858
0.053028494 0.013494107 -0.0069343597 0.024875047 -0.07152612 -0.07940239 -0.045679986 0.0045331037
0.0021415295 -0.038089544 -0.07358874 -0.013093814 0.0021010074 0.0136147505 -0.078280866 -0.075739294
-0.030718947 -0.028884815 -0.030038994 0.036469497 -0.045576412 -0.053899422 -0.05481088 -0.037379198
-0.0033793666 0.039734196 -0.015084781 -0.074108966 -0.020170754 -0.006355422 -0.0833963 -0.06585407
0.0054860674 -0.11386918 -0.07453493 -0.045730084 -0.082269214 -0.05250985 -0.04981908 0.015492046
0.00813776 -0.12205054 -0.0070248386 -0.032039005 0.015678734 0.02385065 -0.029513678 -0.016101595
00000000: 2b1b 2c3c e23a 07bd 2534 39bd f7ed 93bd
00000010: 0fbf 24bd 7bad e6bc fbef 6abd 4805 42bd
00000020: ac14 db3c 5293 573c be80 45bd d636 9ebd
00000030: 7f75 5cbd 4e38 2dbd 9e73 30bd 026b 5abd
00000040: fb5f c4bc af4e 19bd 921f 6cbd ca0d 96bc
00000050: fdd4 eabd b2e6 36bd 3b66 54bd 0d27 8abd
00000060: 1ba3 f0ba 0be2 063d 9686 9fbd a943 43bd
00000070: 610b 503c 52c5 90bd 690f f73b 7f8e 13bd
00000080: bf3d 90bd 9262 873a 905e feba 2888 10bd
00000090: 7f55 3fbd 9955 5abc 898f 00bd 2824 1fbd
000000a0: bc6e 59bd ca7b ed3b 115d 6d3d 9e0b a2bd
000000b0: 7b9d 10bd a403 a73c 28ba 56bd a3fd cfbc
000000c0: 8f45 8dbc 269e 01bd c617 55bb f8cb 2ebd
000000d0: a80c a8bd 75c3 0c3d 1969 b53c aaf1 e2bd
000000e0: fead 403c 6758 f739 5aec 9dbb 87ea 11bd
000000f0: dd2f a7bd 1fad 52bd 75a5 8e3d 79b4 0c3d
00000100: b9eb f9ba f27e 433c fe68 dc3c 23bc b5bc
00000110: 5458 51bc b484 9cbd d204 70bd b950 78bd
00000120: 6834 593d 6316 5d3c a039 e3bb c1c6 cb3c
00000130: 497c 92bd b89d a2bd f01a 3bbd 6e8a 943b
00000140: e758 0c3b c803 1cbd b1b5 96bd 7087 56bc
00000150: 0eb1 093b 6710 5f3c b851 a0bd 341d 9bbd
00000160: 4da6 fbbc d99f ecbc 5614 f6bc 0a61 153d
00000170: 55ae 3abd a4c5 5cbd 6081 60bd ee1a 19bd
00000180: 5d78 5dbb 53c0 223d 2826 77bc 71c6 97bd
00000190: 233d a5bc 2541 d0bb aecb aabd 80de 86bd
000001a0: 78c4 b33b 3f34 e9bd c5a5 98bd 784f 3bbd
000001b0: c37c a8bd 9214 57bd 170f 4cbd 5ad2 7d3c
000001c0: 3d54 053c a2f5 f9bd 9e30 e6bb 553b 03bd
000001d0: b070 803c 7062 c33c abc6 f1bc 7ee7 83bc

FC2.weight f4 [84, 120]
0.03240824 0.014568189 -0.0876885 0.026800621 0.09044801 -0.14879043 -0.06770368 0.0038112986
-0.018446697 0.03932509 0.030200258 -0.06870868 -0.0062520728 0.027518677 0.03591083 0.03523197
0.021556495 -0.0702583 0.090800494 -0.01524513 0.0527439 0.04417807 0.0217144 0.033935834
-0.060735997 -0.010058001 -0.10090997 -0.0099953 0.007898328 0.09014167 -0.008841809 -0.13849117
-0.12715657 -0.0842607 -0.14086828 -0.009056381 -0.03055948 -0.038955625 -0.10415626 -0.10637681
-0.060761817 -0.113221936 0.02415385 -0.023140155 -0.048035316 -0.00844503 -0.0251542 0.003775978
0.047464013 0.02704092 -0.0063538104 0.08019581 0.079441056 -0.043393347 -0.14301924 -0.027473366
-0.088024296 -0.098614864 -0.058235724 0.0210094 -0.11521756 0.043324936 -0.057147224 -0.07313851
0.09671182 -0.11791665 -0.0950546 0.0132375825 0.08001524 0.023793014 -0.059212767 0.006172037
-0.10444084 -0.13433045 -0.05124666 -0.06473622 -0.067343734 -0.052084684 -0.1004097 -0.021081425
-0.012907021 0.098979004 0.03458853 0.021922573 -0.0502549 -0.1370839 -0.03103194 -0.030123891
0.004164443 0.010412786 -0.09289849 0.0028838525 -0.045530647 -0.030831277 0.024597973 0.04485169
-0.09720565 -0.031148305 0.014574706 0.066625126 -0.03411905 0.035829123 0.07124303 -0.07173834
-0.0023510987 -0.06338754 0.06436664 -0.03633874 -0.097189106 0.10971252 -0.08646867 -0.0047701746
0.021080676 -0.05523597 -0.06997992 0.00837643 -0.09680377 -0.14242573 -0.0025940002 -0.03623047
0.0058205393 -0.05874174 -0.06139524 0.12341345 -0.019678297 0.051517505 0.07237832 0.09706824
0.070221014 -0.039107297 -0.032985557 -0.15643229 -0.02859124 -0.060778137 0.05616452 0.024532812
-0.060971648 0.0053942213 0.053072076 -0.03934888 0.018974284 -0.05851811 -0.11790035 -0.1800673
-0.10921859 -0.23584554 0.09201017 0.03502693 -0.044350367 -0.13364452 -0.02320807 0.16934969
-0.029351372 -0.049158268 -0.022959055 -0.032797046 0.036559895 -0.0015702554 0.119777665 0.05583469
-0.02405981 -0.12230003 -0.076192245 0.020811826 -0.0109089045 0.10026494 -0.01228265 0.079803675
0.016343275 -0.03619791 -0.004193975 -0.03299705 -0.05441417 -0.12871394 -0.16841067 -0.09792213
-0.04955889 0.0025189898 -0.0033576775 -0.05976481 -0.19307019 0.0026084452 -0.094176285 -0.013851973
-0.011259307 -0.1710322 -0.062519975 -0.019858662 0.061420344 -0.06328446 -0.026550068 0.22840147
3.8888465e-06 0.13344999 -0.0454097 -0.074933596 0.07721264 0.05326805 0.017670223 0.06632344
0.021942899 0.14026845 -0.12669127 0.0044307606 -0.015794491 -0.04469076 0.08748246 -0.074939586
-0.01813841 0.041579906 -0.017026357 0.07789071 -0.10985983 -0.052808493 0.010067896 -0.017930843
-0.20649897 0.14125896 0.08415594 -0.13331024 -0.017627107 -0.06842766 -0.030387454 0.123623244
0.16228949 0.0031650884 -0.0101319505 -0.029589947 -0.053923465 0.018984936 0.05211706 -0.23303404
-0.0132879475 -0.11077843 0.058239836 0.09657076 0.17560254 0.20272733 0.13109928 0.0647367
-0.03504461 0.0053965067 -0.00065911474 0.000551057 0.09514682 -0.17645508 -0.0746194 0.018516896
0.05292067 0.056234337 -0.041030258 0.10405867 0.07953997 0.14412975 -0.0614611 -0.12066231
00000000: 81be 043d 6aaf 6e3c 0796 b3bd fa8c db3c
00000010: ce3c b93d 855c 18be 3aa8 8abd fbc6 793b
00000020: 871d 97bc 5813 213d 8866 f73c 23b7 8cbd
00000030: 30de ccbb d96e e13c 3c17 133d 664f 103d
00000040: 3f97 b03c 95e3 8fbd 9cf5 b93d b6c6 79bc
00000050: fd09 583d 10f4 343d 66e2 b13c 4d00 0b3d
00000060: 4fc6 78bd 50ca 24bc e3a9 cebd 54c3 23bc
00000070: fd67 013c 329c b83d 3cdd 10bc a1d0 0dbe
00000080: 5535 02be e090 acbd c63f 10be 3761 14bc
00000090: e057 fabc ef8f 1fbd e14f d5bd 16dc d9bd
000000a0: 62e1 78bd e7e0 e7bd 4bde c53c 6c90 bdbc
000000b0: aec0 44bd 065d 0abc 2e10 cebc 6676 773b
000000c0: a069 423d eb84 dd3c a033 d0bb b33d a43d
000000d0: feb1 a23d 39bd 31bd a373 12be d30f e1bc
000000e0: 1546 b4bd 97f6 c9bd 9588 6ebd e81b ac3c
000000f0: 2ff7 ebbd 7d75 313d 3513 6abd a5c9 95bd
00000100: d910 c63d 497e f1bd fcab c2bd 72e2 583c
00000110: 08df a33d 91e9 c23c 1689 72bd cd3e ca3b
00000120: 14e5 d5bd ec8d 09be 05e8 51bd 6c94 84bd
00000130: 83eb 89bd c056 55bd 9aa3 cdbd f4b2 acbc
00000140: f877 53bc 81b5 ca3d b4ac 0d3d f896 b33c
00000150: 15d8 4dbd b95f 0cbe b236 febc 61c6 f6bc
00000160: e175 883b 649a 2a3c 9041 bebd 04ff 3c3b
00000170: 587e 3abd e091 fcbc b081 c93c 68b6 373d
00000180: c113 c7bd bb2a ffbc bfca 6e3c c172 883d
00000190: 6bc0 0bbd 8fc1 123d dee7 913d 8deb 92bd
000001a0: e414 1abb 54d1 81bd a8d2 833d eed7 14bd
000001b0: 150b c7bd f5b0 e03d 7c16 b1bd 204f 9cbb
000001c0: 62b1 ac3c 1d3f 62bd a251 8fbd 4b3d 093c
000001d0: 0e41 c6bd 0dd8 11be 1a00 2abb 6766 14bd
000001e0: 39ba be3b 2e9b 70bd 9379 7bbd 31c0 fc3d
000001f0: 6134 a1bc 0504 533d 163b 943d b7cb c63d
00000200: 09d0 8f3d f92e 20bd dd1b 07bd c92f 20be
00000210: 2d38 eabc 7ff2 78bd c50c 663d 09f9 c83c
00000220: 68bd 79bd 02c2 b03b 1b62 593d 4b2c 21bd
00000230: f56f 9b3c b0b0 6fbd bd75 f1bd 9063 38be
00000240: ffad dfbd 7e81 71be d46f bc3d 6678 0f3d
00000250: bba8 35bd 1cda 08be da1e bebc 016a 2d3e
00000260: 4a72 f0bc 2e5a 49bd a114 bcbc 3256 06bd
00000270: d4bf 153d 07d1 cdba fe4d f53d eab2 643d
00000280: 1419 c5bc 7078 fabd ae0a 9cbd 907d aa3c
00000290: 43bb 32bc b457 cd3d 2b3d 49bc 1c70 a33d
000002a0: 55e2 853c 4244 14bd 9d6d 89bb ea27 07bd
000002b0: 65e1 5ebd 96cd 03be d973 2cbe 668b c8bd
000002c0: 43fe 4abd a315 253b 7b0c 5cbb f2cb 74bd
000002d0: 31b4 45be 73f2 2a3b 7fdf c0bd 63f3 62bc
000002e0: f578 38bc 1123 2fbe 790a 80bd a2ae a2bc
000002f0: e693 7b3d 489b 81bd 877f d9bc 13e2 693e
00000300: f07c 8236 1da7 083e 86ff 39bd c976 99bd
00000310: a921 9e3d 992f 5a3d 25c1 903c 95d4 873d
00000320: 98c1 b33c 88a2 0f3e 5bbb 01be ea2f 913b
00000330: 7363 81bc a90d 37bd 012a b33d ed79 99bd
00000340: 0197 94bc b14f 2a3d dc7a 8bbc 2a85 9f3d
00000350: 31fe e0bd b84d 58bd d1f3 243c b4e3 92bc
00000360: 7774 53be 30a6 103e f359 ac3d 7b82 08be
00000370: b966 90bc cd23 8cbd 1cef f8bc 2f2e fd3d
00000380: 372f 263e 5f6d 4f3b 7b00 26bc 9e66 f2bc
00000390: dade 5cbd 4c86 9b3c b378 553d 7aa0 6ebe
000003a0: b1b5 59bc cddf e2bd e58c 6e3d e4c6 c53d
000003b0: 27d1 333e c197 4f3e e43e 063e ad94 843d
000003c0: f08a 0fbd 2ed5 b03b 71c8 2cba cf74 103a
000003d0: 56dc c23d a4b0 34be 0ed2 98bd bfb0 973c
000003e0: 58c3 583d fa55 663d 580f 28bd b61c d53d
000003f0: dae5 a23d c096 133e a2be 7bbd cd1d f7bd

FC2.bias f4 [84]
-0.15647241 0.051140375 -0.11701962 0.016817326 -0.07843978 -0.039838083 -0.10248285 0.005676841
-0.20159177 -0.010694487 -0.07081758 0.1480735 0.20541558 0.1252456 -0.18160675 -0.04922147
0.027088523 -0.020680288 -0.023602972 -0.12085542 -0.14165908 -0.028124228 -0.07115568 0.06308836
0.08851119 -0.08140793 -0.04916469 0.006480828 -0.06754384 -0.12975118 0.100907624 -0.098578155
-0.117065825 -0.12852186 -0.013026729 0.03308848 0.053044852 0.2108028 -0.1177874 0.00026587545
0.10192048 -0.012127606 -0.105920315 -0.03762488 -0.06181942 0.07561033 0.07758254 -0.06771515
0.026602073 -0.09223821 0.0026496288 0.11080282 -0.049025554 -0.06794898 -0.05978957 0.09215998
-0.100521706 -0.03284228 0.0665556 -0.041281756 -0.048477072 0.06276219 0.009089775 -0.058938205
-0.046991922 -0.081641674 0.021467917 -0.18512487 -0.093032666 -0.19691984 -0.10590873 -0.06881346
-0.094676636 0.26040578 0.0058944263 -0.013367093 0.07729046 0.035287015 0.07735214 -0.057104994
-0.10854094 -0.13619001 -0.10206401 -0.015200201
00000000: 4e3a 20be 9278 513d fca7 efbd 7dc4 893c
00000010: 09a5 a0bd 422d 23bd 87e2 d1bd cb04 ba3b
00000020: 136e 4ebe ee37 2fbc cf08 91bd 94a0 173e
00000030: 7658 523e 6240 003e 1ff7 39be 749c 49bd
00000040: c0e8 dd3c b569 a9bc 055b c1bc 0c83 f7bd
00000050: 140f 11be c864 e6bc 12ba 91bd 7834 813d
00000060: 5b45 b53d 33b9 a6bd ea60 49bd 205d d43b
00000070: 6d54 8abd 7edd 04be a8a8 ce3d 58e3 c9bd
00000080: 35c0 efbd 3c9b 03be 106e 55bc c987 073d
00000090: 8f45 593d b0dc 573e 853a f1bd 3365 8b39
000000a0: afbb d03d deb2 46bc c0ec d8bd 8c1c 1abd
000000b0: 5c36 7dbd 97d9 9a3d 98e3 9e3d 3eae 8abd
000000c0: 97ec d93c 63e7 bcbd 65a5 2d3b 97ec e23d
000000d0: 05cf 48bd d628 8bbd e8e5 74bd 5fbe bc3d
000000e0: 53de cdbd a085 06bd 4d4e 883d 0f17 29bd
000000f0: e58f 46bd 7789 803d 48ed 143c 3069 71bd
00000100: 9a7a 40bd c033 a7bd 7cdd af3c 6091 3dbe
00000110: e987 bebd 5ba5 49be ade6 d8bd 12ee 8cbd
00000120: d3e5 c1bd e853 853e 0826 c13b a701 5bbc
00000130: 764a 9e3d 1e89 103d cc6a 9e3d ede6 69bd
00000140: b64a debd 6575 0bbe f006 d1bd 440a 79bc

FC3.weight f4 [10, 84]
0.060805485 -0.04050577 -0.08815347 -0.07219578 -0.09245825 -0.10107162 0.19357643 -0.0606067
-0.023060324 -0.046675485 -0.029450342 -0.14729862 -0.15283835 0.052569896 -0.047102332 0.2003966
-0.01748713 -0.20938748 -0.1248566 -0.043847397 -0.13265558 -0.09254227 -0.10123054 -0.027145818
-0.07621365 -0.037981987 -0.067721255 -0.12788464 0.2531347 -0.11332634 0.16277272 -0.15332916
0.053202037 -0.024571167 -0.124227405 0.0907073 -0.10381876 0.029869698 -0.13945349 0.14365625
0.23856597 -0.14693898 0.22108768 0.09834674 -0.01948904 -0.008486945 0.039017104 -0.24726383
-0.074585944 0.193605 -0.03507752 -0.17249654 -0.25437856 0.034122 -0.061550066 -0.08665351
-0.05467974 -0.05960009 0.048333567 0.12815769 -0.20346817 -0.048747916 -0.019959256 0.2099308
-0.06684745 -0.007478759 0.08959053 -0.08318986 -0.17557366 0.013980014 -0.12282108 -0.20755032
0.10933444 0.0385417 0.22986336 0.028720694 -0.16294105 -0.013837103 0.06170845 -0.07747659
-0.062301643 0.056274854 -0.00618662 0.07530157 0.058229703 -0.07587427 -0.03791439 0.09675112
0.08034482 0.1121903 -0.062881954 -0.07502523 -0.117892936 -0.003910791 -0.07326772 -0.028586723
-0.11052423 0.014983803 0.116656646 0.083013386 -0.033410296 0.013970839 -0.017057704 0.025992123
-0.08910525 -0.0031410982 0.20923053 0.12581578 -0.044049587 -0.18146095 0.04929125 -0.04913062
0.12631549 -0.13811997 0.092478156 -0.10463689 -0.1601513 -0.0064636217 0.14948799 -0.043164566
-0.03253162 -0.09461383 -0.26321334 -0.11492117 -0.25137642 -0.08946305 0.06693786 -0.17210057
-0.14093359 0.11777551 0.090868875 0.03124334 -0.06828075 0.026687425 -0.086456746 0.017261915
0.027890585 0.021724952 -0.1466587 0.031153394 0.21736643 -0.069030054 0.122392036 0.04782477
0.02422634 -0.11142188 0.1756064 -0.13088855 0.051077392 0.10403424 -0.097204976 -0.05557035
0.01759252 0.027100692 -0.03212253 -0.11256973 0.07985624 0.015256241 -0.102876514 0.20165117
-0.018700503 -0.10195797 0.020988487 -0.10800603 0.20032665 -0.13305664 -0.11208656 0.0006775067
0.054438405 -0.029090663 0.070176326 0.12778126 -0.16995113 0.15942214 0.19177207 0.03566275
0.07938371 0.20531055 0.028664658 -0.22874042 0.095392354 -0.0638964 0.13020433 -0.03796171
0.03247171 0.25460744 0.069171965 0.05848514 -0.07080961 -0.11824629 0.07311391 0.032388914
0.09705342 -0.04492218 0.009779673 -0.2553156 0.1533814 -0.065157585 -0.17587657 0.15887375
-0.18166958 -0.0760737 -0.1446709 -0.1672976 -0.18856645 0.0088382745 -0.1320234 -0.1478627
0.0002553529 -0.018643536 -0.08132903 -0.0051666303 0.04208769 -0.16198051 -0.2365715 -0.026402857
-0.090469815 0.1460846 -0.0047335974 0.02174141 0.09580478 -0.2165871 -0.12280303 -0.28176326
-0.10862026 0.18915541 -0.0703421 0.02494586 -0.0038760442 -0.04661248 -0.0754566 0.053902175
0.062105898 0.08049051 -0.11863209 -0.10790197 0.01189337 -0.1281154 0.061869703 0.08553051
-0.17687707 -0.018410338 -0.05685958 -0.024763107 0.15924978 -0.11367614 0.06262146 0.13523996
0.13779022 0.073381945 0.20588306 -0.026920684 -0.0301013 0.15261483 -0.07100454 -0.04121904
00000000: 2c0f 793d 61e9 25bd ce89 b4bd 62db 93bd
00000010: c05a bdbd a3fe cebd e638 463e bb3e 78bd
00000020: 01e9 bcbc cb2e 3fbd d841 f1bc 73d5 16be
00000030: a881 1cbe 8853 573d 60ee 40bd c434 4d3e
00000040: 2b41 8fbc ac69 56be d1b4 ffbd 5499 33bd
00000050: ddd6 07be cd86 bdbd f551 cfbd e860 debc
00000060: e715 9cbd 0093 1bbd 71b1 8abd 31f4 02be
00000070: df9a 813e a417 e8bd e4ad 263e 5202 1dbe
00000080: 61ea 593d 7949 c9bc f06a febd c0c4 b93d
00000090: ee9e d4bd 4cb1 f43c e5cc 0ebe a01a 133e
000000a0: a34a 743e 2c77 16be cf64 623e 046a c93d
000000b0: 7ba7 9fbc d40c 0bbc 66d0 1f3d bb32 7dbe
000000c0: 84c0 98bd 6440 463e 72ad 0fbd efa2 30be
000000d0: e83d 82be 83c3 0b3d ec1b 7cbd 6577 b1bd
000000e0: ddf7 5fbd 391f 74bd 6bf9 453d c53b 033e
000000f0: f659 50be e5ab 47bd 9881 a3bc 1af8 563e
00000100: 51e7 88bd 6110 f5bb 3d7b b73d 725f aabd
00000110: 95c9 33be 6e0c 653c 9e89 fbbd 1288 54be
00000120: bcea df3d e7dd 1d3d 4d61 6b3e a947 eb3c
00000130: 05da 26be 04b5 62bc 00c2 7c3d 0cac 9ebd
00000140: 0230 7fbd 7680 663d 21b9 cabb b637 9a3d
00000150: 4582 6e3d f863 9bbd 1f4c 1bbd 7425 c63d
00000160: d38b a43d 07c4 e53d 41c8 80bd d4a6 99bd
00000170: da71 f1bd 1826 80bb 630d 96bd b42e eabc
00000180: 875a e2bd a07e 753c aee9 ee3d ec02 aa3d
00000190: 3cd9 08bd f2e5 643c 99bc 8bbc 6fed d43c
000001a0: d07c b6bd e2da 4dbb 8740 563e dad5 003e
000001b0: 576d 34bd e6d0 39be 9fe5 493d 303d 49bd
000001c0: d958 013e 526f 0dbe 3065 bd3d de4b d6bd
000001d0: b4fe 23be cacc d3bb 6113 193e 54cd 30bd
000001e0: e03f 05bd e5c4 c1bd e6c3 86be ca5b ebbd
000001f0: 69b4 80be 6738 b7bd b716 893d 223b 30be
00000200: e550 10be 4934 f13d 7619 ba3d 08f2 ff3c
00000210: c7d6 8bbd 969f da3c 3c10 b1bd dc68 8d3c
00000220: cc7a e43c 87f8 b13c b32d 16be 6735 ff3c
00000230: 4e95 5e3e a15f 8dbd ada8 fa3d e8e3 433d
00000240: 5176 c63c 2831 e4bd 2ad2 333e a607 06be
00000250: 8736 513d e70f d53d 6713 c7bd bc9d 63bd
00000260: 301e 903c 4502 de3c ea92 03bd f58a e6bd
00000270: ab8b a33d 50f5 793c ecb0 d2bd a57d 4e3e
00000280: cc31 99bc 57cf d0bd 0cf0 ab3c 4432 ddbd
00000290: 6e22 4d3e 0040 08be a38d e5bd b49a 313a
000002a0: cefa 5e3d 8b4f eebc 9bb8 8f3d 17d9 023e
000002b0: ab07 2ebe 8f3f 233e e65f 443e 1b13 123d
000002c0: ed93 a23d ee3c 523e 25d2 ea3c ee3a 6abe
000002d0: 115d c33d 1edc 82bd 4954 053e bd7d 1bbd
000002e0: 0e01 053d e85b 823e 08aa 8d3d 1d8e 6f3d
000002f0: a104 91bd 1c2b f2bd bfbc 953d 3daa 043d
00000300: f2c3 c63d 5200 38bd ec3a 203c bab8 82be
00000310: 0410 1d3e 5771 85bd fd18 34be cdaf 223e
00000320: 9707 3abe 87cc 9bbd 9c24 14be 1050 2bbe
00000330: 9017 41be 69ce 103c 2431 07be 5269 17be
00000340: e3e0 8539 54ba 98bc d68f a6bd d64c a9bb
00000350: 2464 2c3d 38de 25be cd3f 72be ce4a d8bc
00000360: 3d48 b9bd 3497 153e 4b1c 9bbb 0b1b b23c
00000370: 4c35 c43d 02c9 5dbe 2880 fbbd 4643 90be
00000380: 4d74 debd f5b1 413e 850f 90bd 435b cc3c
00000390: 3b05 7ebb baec 3ebd fd88 9abd 87c8 5c3d
000003a0: c162 7e3d 35d8 a43d 62f5 f2bd b5fb dcbd
000003b0: 69dc 423c af30 03be 166b 7d3d 9f2a af3d
000003c0: 431f 35be 47d1 96bc 97e5 68bd 00dc cabc
000003d0: 6012 233e 09cf e8bd ae3f 803d 587c 0a3e
000003e0: e118 0d3e 4649 963d 02d3 523e c488 dcbc
000003f0: 0097 f6bc 1047 1c3e d46a 91bd 4cd5 28bd

FC3.bias f4 [10]
-0.06602063 -0.007004634 -0.0071239932 -0.03667629 -0.10407315 0.0023526368 -0.034330495 -0.073983505
0.13234831 0.001960729
00000000: d335 87bd 2187 e5bb 6370 e9bb e139 16bd
00000010: 4e24 d5bd b22e 1a3b 229e 0cbd aa84 97bd
00000020: 5186 073e 937f 003b

layer.0.weight f4 [6, 1, 5, 5]
0.23203672 0.26266575 0.15237874 0.050724372 -0.1414666 0.2126193 0.23441085 0.17863092
-0.0942758 -0.3196139 -0.091743775 -0.25377512 -0.2433411 -0.4095035 -0.21399806 -0.4114671
-0.36788717 -0.4222136 -0.044130806 0.13086884 -0.20806389 -0.13214609 0.12672819 0.034203444
0.062361944 -0.005441966 -0.18070532 -0.011291176 -0.0841429 -0.16828507 -0.3975823 -0.05085667
0.17008486 0.016586863 0.18970256 -0.2848862 0.037749816 0.23084326 0.30043566 0.11621751
0.07359696 0.100812584 0.011156087 0.19302617 -0.1408305 -0.16760932 0.005533733 0.06529913
0.089754604 0.020366257 -0.048189253 0.014997125 -0.02963754 -0.023026878 -0.18738018 0.07339831
0.18687366 0.14323437 -0.28667626 -0.3132094 0.0477107 -0.021434337 0.29649 -0.21664275
-0.080386706 -0.15799037 0.10918648 0.28735074 -0.09348851 -0.05562735 -0.092774086 -0.06530008
0.20358801 0.15289266 -0.030637698 -0.5199568 -0.23453267 0.20420836 -0.06909345 0.07721873
-0.3192217 -0.56547475 -0.21948762 -0.1349002 -0.12988797 -0.085228644 -0.3996978 -0.12795568
-0.03217972 0.006492023 0.18088692 -0.13414319 0.14212902 0.029951494 0.20363146 0.210235
0.11452224 0.22308464 0.13759229 0.05908059 -0.2727092 0.16567786 -0.058302436 0.07832754
-0.267866 -0.030687705 0.16792887 0.07752166 -0.13531847 -0.33371717 -0.03587851 0.20096442
0.058092106 -0.05509459 -0.4958552 0.2598749 -0.039597254 0.018355262 -0.2826442 -0.33485776
0.092670865 0.07006857 -0.1187046 -0.2688794 -0.21400224 0.089259714 -0.07759605 -0.31646207
-0.14255172 -0.102714434 -0.01865159 -0.019169789 -0.057391338 0.10044795 0.080857836 0.15533318
0.27603748 0.30959266 0.11241413 -0.06745073 -0.15752165 0.0062414696 -0.027084038 0.08517273
0.0701208 -0.29655945 -0.31172696 -0.07670876 -0.030529616 -0.016989907
00000000: 099b 6d3e 207c 863e 2c09 1c3e 5cc4 4f3d
00000010: 9fdc 10be e0b8 593e 6609 703e 06eb 363e
00000020: ac13 c1bd 6fa4 a3be 29e4 bbbd d0ee 81be
00000030: 692e 79be 71aa d1be 4f22 5bbe d1ab d2be
00000040: b55b bcbe 622c d8be 81c2 34bd 7b02 063e
00000050: b30e 55be 4e51 07be 09c5 013e e918 0c3d
00000060: 3d6f 7f3d 8552 b2bb d10a 39be a0fe 38bc
00000070: 1d53 acbd ec52 2cbe e88f cbbe 154f 50bd
00000080: ba2a 2e3e 2ce1 873c 6341 423e 9bdc 91be
00000090: 8d9f 1a3d 2d62 6c3e b4d2 993e 7203 ee3d
000000a0: 01ba 963d d476 ce3d 05c8 363c a7a8 453e
000000b0: df35 10be c7a1 2bbe 5154 b53b 8dbb 853d
000000c0: 43d1 b73d 23d7 a63c 1862 45bd 80b6 753c
000000d0: 6dca f2bc dda2 bcbc 97e0 3fbe da51 963d
000000e0: cf5b 3f3e 08ac 123e 3bc7 92be fc5c a0be
000000f0: 4c6c 433d 1097 afbc 8acd 973e 99d7 5dbe
00000100: c9a1 a4bd 3ac8 21be 299d df3d a31f 933e
00000110: e776 bfbd 81d9 63bd 5700 bebd 0cbc 85bd
00000120: 6079 503e e58f 1c3e e9fb fabc e41b 05bf
00000130: 5529 70be ff1b 513e de80 8dbd da24 9e3d
00000140: 0771 a3be f4c2 10bf 5dc1 60be 4723 0abe
00000150: 5a01 05be 5b8c aebd 31a5 ccbe d006 03be
00000160: e2ce 03bd 09bb d43b 6c3a 393e d55c 09be
00000170: 458a 113e d65c f53c c484 503e d847 573e
00000180: a38a ea3d 4d70 643e fee4 0c3e 7dfe 713d
00000190: 8aa0 8bbe 75a7 293e 89ce 6ebd 306a a03d
000001a0: bb25 89be c864 fbbc 8cf5 2b3e adc3 9e3d
000001b0: ed90 0abe fadc aabe 58f5 12bd 9ec9 4d3e
000001c0: fdf1 6d3d ddaa 61bd bce0 fdbe 530e 853e
000001d0: bb30 22bd c65d 963c beb6 90be 7a72 abbe
000001e0: 39ca bd3d 1c80 8f3d 661b f3bd 90aa 89be
000001f0: 6723 5bbe cccd b63d aeea 9ebd 5107 a2be
00000200: 14f9 11be f25b d2bd 38cb 98bc f609 9dbc
00000210: 2e13 6bbd a8b7 cd3d cb98 a53d a90f 1f3e
00000220: c954 8d3e ee82 9e3e 6139 e63d 9c23 8abd
00000230: 5b4d 21be 3e85 cc3b 58df ddbc 0a6f ae3d
00000240: 7e9b 8f3d a4d6 97be ad9a 9fbe 7b19 9dbd
00000250: 3f19 fabc 6b2e 8bbc

layer.0.bias f4 [6]
0.34597003 -0.32922986 -0.15610279 -0.16856639 -0.19730835 -0.4014759
00000000: fc22 b13e d190 a8be 69d9 1fbe ab9c 2cbe
00000010: 330b 4abe 408e cdbe

layer.3.weight f4 [16, 6, 5, 5]
0.128115 0.120112196 0.22883289 0.22227779 -0.039566908 0.062721506 0.09155339 -0.013071558
-0.17568809 -0.025585882 -0.12790047 -0.1127657 -0.19199854 -0.16347472 -0.07109673 0.097359926
0.02998496 -0.09294963 -0.04807473 0.0010532116 -0.053390354 0.03299597 0.07129537 0.049414363
0.054291885 -0.0134694 -0.21967737 -0.26530522 -0.15167084 0.07344575 0.046360794 -0.0998968
0.030927818 0.08753725 0.081666045 0.15547702 0.1498149 -0.0041814866 -0.106045194 -0.11231844
-0.0031902986 0.06270163 0.09586025 0.07113976 0.038931653 -0.1621366 -0.08286252 0.029410515
0.005077732 -0.048258338 -0.12344548 -0.044823423 -0.06094098 -0.17555611 -0.24985766 -0.10225433
0.0756549 0.053813294 -0.15504049 -0.0037621506 0.025782438 0.0251555 0.09692596 0.06260779
-0.048322313 0.07610724 0.03889692 0.05806995 0.14444846 -0.03659196 -0.097513914 -0.18307959
-0.01656328 0.08181187 -0.0739745 0.0043540867 -0.061872486 0.026632238 0.026104147 0.14615178
0.12989657 0.12467755 0.075433046 0.029038481 0.017291946 0.21206577 0.15578966 -0.036308438
0.035400707 -0.014165521 -0.16501836 -0.2455368 -0.1950193 -0.11054749 0.0008445736 -0.24259168
-0.10391499 -0.13380076 -0.115944356 -0.2046723 -0.08649658 0.0027128207 -0.14408186 -0.33707425
-0.26519677 -0.111308746 -0.1953045 -0.0400862 -0.053672306 -0.06357835 -0.2486125 -0.07174406
0.041828133 -0.03072261 -0.04996204 0.026067993 -0.07634835 -0.08153788 -0.06361697 -0.012091045
-0.07785076 -0.17562963 0.015133459 -0.0574713 -0.116657026 0.020921407 -0.14889468 -0.1788858
-0.2803337 0.028217642 -0.15603851 0.05752381 -0.06746748 -0.004197665 0.12880059 0.13108003
0.083655275 0.16464686 -0.11389131 -0.07575111 0.07586919 0.123400666 0.09189596 0.15990014
0.035046864 -0.19003339 -0.11156578 0.037130542 0.052492544 0.06280528 0.063200876 -0.08027492
-0.0919723 -0.32865384 -0.0019288957 0.25463116 0.14910266 -0.08807119 -0.059606306 -0.0433375
0.020396397 0.042826988 0.06016591 0.13052794 0.106557645 -0.083422564 0.11632676 0.21913813
0.16461197 0.20187525 -0.07290891 -0.08930658 -0.015731309 0.024438834 -0.019715734 -0.023730254
-0.3563209 -0.1736769 -0.115443856 -0.092064515 -0.09390097 -0.109396696 0.034387007 -0.06375616
-0.03600056 -0.06454629 0.1627691 0.14361466 0.13603926 -0.08105702 -0.036139403 0.04401112
-0.065358855 -0.08613965 -0.014683759 -0.060553063 -0.12020059 -0.23999058 -0.09408918 -0.04927562
-0.00011025294 -0.057851262 -0.31276867 -0.16808818 -0.12590358 -0.017033663 -0.03993846 -0.10029524
-0.07106268 0.019308375 -0.09368274 0.06788579 -0.082447775 0.07755867 0.19621544 -0.037130814
-0.06260358 -0.039792567 -0.048900142 0.070514105 0.08755472 0.06911908 0.047700543 -0.18677992
-0.14008954 0.09720005 -0.110627055 -0.07968444 -0.04946597 -0.13460898 0.06986805 0.1018346
0.20761566 0.24784555 0.12939408 0.06687209 0.098468326 0.0835479 -0.07064217 -0.09724802
0.017566405 -0.10303524 -0.39322704 -0.25313365 -0.17110446 0.059429783 -0.05276041 0.096669994
0.21896224 0.033665918 0.0677839 -0.008512656 -0.1531787 -0.13963693 0.045772072 -0.022179367
00000000: 9430 033e 62fd f53d 2b53 6a3e ca9c 633e
00000010: e910 22bd 2274 803d 5880 bb3d 172a 56bc
00000020: 94e7 33be 7c99 d1bc 57f8 02be b4f1 e6bd
00000030: 449b 44be eb65 27be 2a9b 91bd a464 c73d
00000040: 05a3 f53c 605c bebd 02ea 44bd eb0b 8a3a
00000050: d8af 5abd c826 073d 4f03 923d b766 4a3d
00000060: 2b61 5e3d c2ae 5cbc 1bf3 60be 16d6 87be
00000070: 9a4f 1bbe ba6a 963d d1e4 3d3d b296 ccbd
00000080: 565c fd3c bb46 b33d 8740 a73d 5e35 1f3e
00000090: 1469 193e da04 89bb 392e d9bd 3607 e6bd
000000a0: 5414 51bb b669 803d 6152 c43d b9b1 913d
000000b0: cc76 1f3d 2307 26be d3b3 a9bd 52ee f03c
000000c0: 1a63 a63b 89aa 45bd fcd0 fcbd c498 37bd
000000d0: 409d 79bd fbc4 33be b0da 7fbe b86a d1bd
000000e0: f5f0 9a3d 546b 5c3d efc2 1ebe 6a8e 76bb
000000f0: b135 d33c e812 ce3c 1e81 c63d 8338 803d
00000100: 9eed 45bd 1dde 9b3d 6052 1f3d c2da 6d3d
00000110: 4cea 133e 73e1 15bd 60b5 c7bd 3779 3bbe
00000120: b7af 87bc fb8c a73d f17f 97bd baac 8e3b
00000130: 016e 7dbd da2b da3c 5dd8 d53c d0a8 153e
00000140: 9b03 053e f156 ff3d a47c 9a3d 1ce2 ed3c
00000150: d7a7 8d3c c527 593e 5387 1f3e 28b8 14bd
00000160: 5500 113d 8016 68bc 93fa 28be 006e 7bbe
00000170: 24b3 47be b966 e2bd 6066 5d3a f469 78be
00000180: 62d1 d4bd 1103 09be 3c74 edbd 9e95 51be
00000190: 1e25 b1bd 94c9 313b 328a 13be ff94 acbe
000001a0: dfc7 87be d7f5 e3bd e7fd 47be 6d31 24bd
000001b0: 7ed7 5bbd 5e35 82bd 4694 7ebe 8dee 92bd
000001c0: fa53 2b3d fcad fbbc ffa4 4cbd 8b8c d53c
000001d0: 865c 9cbd 55fd a6bd 9d49 82bd 8519 46bc
000001e0: 3870 9fbd 41d8 33be 54f2 773c 0767 6bbd
000001f0: e1e9 eebd 5f63 ab3c d977 18be d72d 37be
00000200: e687 8fbe af28 e73c 8fc8 1fbe 169e 6b3d
00000210: 642c 8abd 918c 89bb 4de4 033e d839 063e
00000220: 7553 ab3d 3099 283e d93f e9bd 6623 9bbd
00000230: 4e61 9b3d 7db9 fc3d f333 bc3d ddbc 233e
00000240: 4d8d 0f3d 1d98 42be 9a7c e4bd 3216 183d
00000250: 6c02 573d 0ea0 803d 766f 813d 2d67 a4bd
00000260: f95b bcbd 5145 a8be 00d3 fcba 045f 823e
00000270: 5eae 183e ab5e b4bd be25 74bd aa82 31bd
00000280: 5816 a73c 5a6b 2f3d 8770 763d 1ea9 053e
00000290: e53a da3d 73d9 aabd b93c ee3d bf65 603e
000002a0: 0a90 283e 63b8 4e3e 4451 95bd 5ee6 b6bd
000002b0: f2de 80bc f333 c83c e482 a1bc f365 c2bc
000002c0: b16f b6be 5bd8 31be d46d ecbd 528c bcbd
000002d0: 274f c0bd 600b e0bd 64d9 0c3d 9792 82bd
000002e0: 5375 13bd d830 84bd f1ac 263e b90f 133e
000002f0: e04d 0b3e 3901 a6bd e906 14bd 0145 343d
00000300: ddda 85bd fc69 b0bd 2694 70bc 7d06 78bd
00000310: ba2b f6bd 17c0 75be d4b1 c0bd 3cd5 49bd
00000320: 9937 e7b8 72f5 6cbd 3723 a0be 4f1f 2cbe
00000330: deec 00be 2e8a 8bbc 8396 23bd 9767 cdbd
00000340: 4f89 91bd 992c 9e3c bddc bfbd b407 8b3d
00000350: 61da a8bd 14d7 9e3d b3ec 483e 7b16 18bd
00000360: 4e36 80bd 88fd 22bd 844b 48bd b369 903d
00000370: e44f b33d 4e8e 8d3d a561 433d 3c43 3fbe
00000380: a273 0fbe d210 c73d 7090 e2bd 9831 a3bd
00000390: d49c 4abd f0d6 09be fb16 8f3d a98e d03d
000003a0: 3399 543e 39cb 7d3e e27f 043e 3cf4 883d
000003b0: c3a9 c93d 291b ab3d d8ac 90bd f829 c7bd
000003c0: 6ce7 8f3c 2404 d3bd 0e55 c9be bc9a 81be
000003d0: 0236 2fbe a56c 733d 4d1b 58bd ebfa c53d
000003e0: a337 603e 46e5 093d 49d2 8a3d ab78 0bbc
000003f0: e1da 1cbe fcfc 0ebe 7f7b 3b3d 81b1 b5bc

layer.3.bias f4 [16]
-0.08947153 -0.15608574 -0.2930851 -0.06089583 -0.118895285 -0.084722586 -0.12434063 -0.2682101
-0.09901119 -0.012721869 -0.14262679 -0.07479012 -0.2665295 -0.0779562 -0.038712602 0.018149203
00000000: d93c b7bd f1d4 1fbe 400f 96be e86d 79bd
00000010: 5f7f f3bd 0983 adbd 4da6 febd d652 89be
00000020: 61c6 cabd 636f 50bc c20c 12be 902b 99bd
00000030: 8e76 88be 80a7 9fbd 1b91 1ebd a3ad 943c
